…
12/03/2023 07:10:19 - ERROR - __main__ - /usr/local/envs/diffusers/lib/python3.9/site-packages/diffusers/configuration_utils.py:215: FutureWarning: It is deprecated to pass a pretrained model name or path to `from_config`.If you were trying to load a model, please use <class 'vldm_adapter.unet_3d_condition.UNet3DConditionModel'>.load_config(...) followed by <class 'vldm_adapter.unet_3d_condition.UNet3DConditionModel'>.from_config(...) instead. Otherwise, please make sure to pass a configuration dictionary instead. This functionality will be removed in v1.0.0.
  deprecate("config-passed-as-path", "1.0.0", deprecation_message, standard_warn=False)

12/03/2023 07:10:30 - INFO - __main__ - unet model
12/03/2023 07:10:30 - INFO - __main__ - 

12/03/2023 07:10:30 - INFO - __main__ - UNet3DConditionModel(
  (conv_in): Conv2d(4, 320, kernel_size=(3, 3), stride=(1, 1), padding=(1, 1))
  (time_proj): Timesteps()
  (time_embedding): TimestepEmbedding(
    (linear_1): Linear(in_features=320, out_features=1280, bias=True)
    (act): SiLU()
    (linear_2): Linear(in_features=1280, out_features=1280, bias=True)
  )
  (transformer_in): TransformerTemporalModel(
    (norm): GroupNorm(32, 320, eps=1e-06, affine=True)
    (proj_in): Linear(in_features=320, out_features=512, bias=True)
    (transformer_blocks): ModuleList(
      (0): BasicTransformerBlock(
        (norm1): LayerNorm((512,), eps=1e-05, elementwise_affine=True)
        (attn1): Attention(
          (to_q): Linear(in_features=512, out_features=512, bias=False)
          (to_k): Linear(in_features=512, out_features=512, bias=False)
          (to_v): Linear(in_features=512, out_features=512, bias=False)
          (to_out): ModuleList(
            (0): Linear(in_features=512, out_features=512, bias=True)
            (1): Dropout(p=0.0, inplace=False)
          )
        )
        (norm2): LayerNorm((512,), eps=1e-05, elementwise_affine=True)
        (attn2): Attention(
          (to_q): Linear(in_features=512, out_features=512, bias=False)
          (to_k): Linear(in_features=512, out_features=512, bias=False)
          (to_v): Linear(in_features=512, out_features=512, bias=False)
          (to_out): ModuleList(
            (0): Linear(in_features=512, out_features=512, bias=True)
            (1): Dropout(p=0.0, inplace=False)
          )
        )
        (norm3): LayerNorm((512,), eps=1e-05, elementwise_affine=True)
        (ff): FeedForward(
          (net): ModuleList(
            (0): GEGLU(
              (proj): Linear(in_features=512, out_features=4096, bias=True)
            )
            (1): Dropout(p=0.0, inplace=False)
            (2): Linear(in_features=2048, out_features=512, bias=True)
          )
        )
      )
    )
    (proj_out): Linear(in_features=512, out_features=320, bias=True)
  )
  (down_blocks): ModuleList(
    (0): CrossAttnDownBlock3D(
      (resnets): ModuleList(
        (0): ResnetBlock2D(
          (norm1): GroupNorm(32, 320, eps=1e-05, affine=True)
          (conv1): Conv2d(320, 320, kernel_size=(3, 3), stride=(1, 1), padding=(1, 1))
          (time_emb_proj): Linear(in_features=1280, out_features=320, bias=True)
          (norm2): GroupNorm(32, 320, eps=1e-05, affine=True)
          (dropout): Dropout(p=0.0, inplace=False)
          (conv2): Conv2d(320, 320, kernel_size=(3, 3), stride=(1, 1), padding=(1, 1))
          (nonlinearity): SiLU()
        )
        (1): ResnetBlock2D(
          (norm1): GroupNorm(32, 320, eps=1e-05, affine=True)
          (conv1): Conv2d(320, 320, kernel_size=(3, 3), stride=(1, 1), padding=(1, 1))
          (time_emb_proj): Linear(in_features=1280, out_features=320, bias=True)
          (norm2): GroupNorm(32, 320, eps=1e-05, affine=True)
          (dropout): Dropout(p=0.0, inplace=False)
          (conv2): Conv2d(320, 320, kernel_size=(3, 3), stride=(1, 1), padding=(1, 1))
          (nonlinearity): SiLU()
        )
      )
      (temp_convs): ModuleList(
        (0): TemporalConvLayer(
          (proj_conv): Sequential(
            (0): GroupNorm(32, 320, eps=1e-05, affine=True)
            (1): SiLU()
            (2): Conv3d(320, 320, kernel_size=(3, 1, 1), stride=(1, 1, 1), padding=(1, 0, 0))
          )
          (conv1): Sequential(
            (0): GroupNorm(32, 320, eps=1e-05, affine=True)
            (1): SiLU()
            (2): Conv3d(320, 320, kernel_size=(3, 1, 1), stride=(1, 1, 1), padding=(1, 0, 0))
          )
          (conv2): Sequential(
            (0): GroupNorm(32, 320, eps=1e-05, affine=True)
            (1): SiLU()
            (2): Dropout(p=0.1, inplace=False)
            (3): Conv3d(320, 320, kernel_size=(3, 1, 1), stride=(1, 1, 1), padding=(1, 0, 0))
          )
          (conv3): Sequential(
            (0): GroupNorm(32, 320, eps=1e-05, affine=True)
            (1): SiLU()
            (2): Dropout(p=0.1, inplace=False)
            (3): Conv3d(320, 320, kernel_size=(3, 1, 1), stride=(1, 1, 1), padding=(1, 0, 0))
          )
          (conv4): Sequential(
            (0): GroupNorm(32, 320, eps=1e-05, affine=True)
            (1): SiLU()
            (2): Dropout(p=0.1, inplace=False)
            (3): Conv3d(320, 320, kernel_size=(3, 1, 1), stride=(1, 1, 1), padding=(1, 0, 0))
          )
        )
        (1): TemporalConvLayer(
          (proj_conv): Sequential(
            (0): GroupNorm(32, 320, eps=1e-05, affine=True)
            (1): SiLU()
            (2): Conv3d(320, 320, kernel_size=(3, 1, 1), stride=(1, 1, 1), padding=(1, 0, 0))
          )
          (conv1): Sequential(
            (0): GroupNorm(32, 320, eps=1e-05, affine=True)
            (1): SiLU()
            (2): Conv3d(320, 320, kernel_size=(3, 1, 1), stride=(1, 1, 1), padding=(1, 0, 0))
          )
          (conv2): Sequential(
            (0): GroupNorm(32, 320, eps=1e-05, affine=True)
            (1): SiLU()
            (2): Dropout(p=0.1, inplace=False)
            (3): Conv3d(320, 320, kernel_size=(3, 1, 1), stride=(1, 1, 1), padding=(1, 0, 0))
          )
          (conv3): Sequential(
            (0): GroupNorm(32, 320, eps=1e-05, affine=True)
            (1): SiLU()
            (2): Dropout(p=0.1, inplace=False)
            (3): Conv3d(320, 320, kernel_size=(3, 1, 1), stride=(1, 1, 1), padding=(1, 0, 0))
          )
          (conv4): Sequential(
            (0): GroupNorm(32, 320, eps=1e-05, affine=True)
            (1): SiLU()
            (2): Dropout(p=0.1, inplace=False)
            (3): Conv3d(320, 320, kernel_size=(3, 1, 1), stride=(1, 1, 1), padding=(1, 0, 0))
          )
        )
      )
      (attentions): ModuleList(
        (0): Transformer2DModel(
          (norm): GroupNorm(32, 320, eps=1e-06, affine=True)
          (proj_in): Linear(in_features=320, out_features=320, bias=True)
          (transformer_blocks): ModuleList(
            (0): BasicTransformerBlock(
              (norm1): LayerNorm((320,), eps=1e-05, elementwise_affine=True)
              (attn1): Attention(
                (to_q): Linear(in_features=320, out_features=320, bias=False)
                (to_k): Linear(in_features=320, out_features=320, bias=False)
                (to_v): Linear(in_features=320, out_features=320, bias=False)
                (to_out): ModuleList(
                  (0): Linear(in_features=320, out_features=320, bias=True)
                  (1): Dropout(p=0.0, inplace=False)
                )
              )
              (norm2): LayerNorm((320,), eps=1e-05, elementwise_affine=True)
              (attn2): Attention(
                (to_q): Linear(in_features=320, out_features=320, bias=False)
                (to_k): Linear(in_features=1024, out_features=320, bias=False)
                (to_v): Linear(in_features=1024, out_features=320, bias=False)
                (to_out): ModuleList(
                  (0): Linear(in_features=320, out_features=320, bias=True)
                  (1): Dropout(p=0.0, inplace=False)
                )
              )
              (norm3): LayerNorm((320,), eps=1e-05, elementwise_affine=True)
              (ff): FeedForward(
                (net): ModuleList(
                  (0): GEGLU(
                    (proj): Linear(in_features=320, out_features=2560, bias=True)
                  )
                  (1): Dropout(p=0.0, inplace=False)
                  (2): Linear(in_features=1280, out_features=320, bias=True)
                )
              )
            )
          )
          (proj_out): Linear(in_features=320, out_features=320, bias=True)
        )
        (1): Transformer2DModel(
          (norm): GroupNorm(32, 320, eps=1e-06, affine=True)
          (proj_in): Linear(in_features=320, out_features=320, bias=True)
          (transformer_blocks): ModuleList(
            (0): BasicTransformerBlock(
              (norm1): LayerNorm((320,), eps=1e-05, elementwise_affine=True)
              (attn1): Attention(
                (to_q): Linear(in_features=320, out_features=320, bias=False)
                (to_k): Linear(in_features=320, out_features=320, bias=False)
                (to_v): Linear(in_features=320, out_features=320, bias=False)
                (to_out): ModuleList(
                  (0): Linear(in_features=320, out_features=320, bias=True)
                  (1): Dropout(p=0.0, inplace=False)
                )
              )
              (norm2): LayerNorm((320,), eps=1e-05, elementwise_affine=True)
              (attn2): Attention(
                (to_q): Linear(in_features=320, out_features=320, bias=False)
                (to_k): Linear(in_features=1024, out_features=320, bias=False)
                (to_v): Linear(in_features=1024, out_features=320, bias=False)
                (to_out): ModuleList(
                  (0): Linear(in_features=320, out_features=320, bias=True)
                  (1): Dropout(p=0.0, inplace=False)
                )
              )
              (norm3): LayerNorm((320,), eps=1e-05, elementwise_affine=True)
              (ff): FeedForward(
                (net): ModuleList(
                  (0): GEGLU(
                    (proj): Linear(in_features=320, out_features=2560, bias=True)
                  )
                  (1): Dropout(p=0.0, inplace=False)
                  (2): Linear(in_features=1280, out_features=320, bias=True)
                )
              )
            )
          )
          (proj_out): Linear(in_features=320, out_features=320, bias=True)
        )
      )
      (temp_attentions): ModuleList(
        (0): TransformerTemporalModel(
          (norm): GroupNorm(32, 320, eps=1e-06, affine=True)
          (proj_in): Linear(in_features=320, out_features=320, bias=True)
          (transformer_blocks): ModuleList(
            (0): BasicTransformerBlock(
              (norm1): LayerNorm((320,), eps=1e-05, elementwise_affine=True)
              (attn1): Attention(
                (to_q): Linear(in_features=320, out_features=320, bias=False)
                (to_k): Linear(in_features=320, out_features=320, bias=False)
                (to_v): Linear(in_features=320, out_features=320, bias=False)
                (to_out): ModuleList(
                  (0): Linear(in_features=320, out_features=320, bias=True)
                  (1): Dropout(p=0.0, inplace=False)
                )
              )
              (norm2): LayerNorm((320,), eps=1e-05, elementwise_affine=True)
              (attn2): Attention(
                (to_q): Linear(in_features=320, out_features=320, bias=False)
                (to_k): Linear(in_features=320, out_features=320, bias=False)
                (to_v): Linear(in_features=320, out_features=320, bias=False)
                (to_out): ModuleList(
                  (0): Linear(in_features=320, out_features=320, bias=True)
                  (1): Dropout(p=0.0, inplace=False)
                )
              )
              (norm3): LayerNorm((320,), eps=1e-05, elementwise_affine=True)
              (ff): FeedForward(
                (net): ModuleList(
                  (0): GEGLU(
                    (proj): Linear(in_features=320, out_features=2560, bias=True)
                  )
                  (1): Dropout(p=0.0, inplace=False)
                  (2): Linear(in_features=1280, out_features=320, bias=True)
                )
              )
            )
          )
          (proj_out): Linear(in_features=320, out_features=320, bias=True)
        )
        (1): TransformerTemporalModel(
          (norm): GroupNorm(32, 320, eps=1e-06, affine=True)
          (proj_in): Linear(in_features=320, out_features=320, bias=True)
          (transformer_blocks): ModuleList(
            (0): BasicTransformerBlock(
              (norm1): LayerNorm((320,), eps=1e-05, elementwise_affine=True)
              (attn1): Attention(
                (to_q): Linear(in_features=320, out_features=320, bias=False)
                (to_k): Linear(in_features=320, out_features=320, bias=False)
                (to_v): Linear(in_features=320, out_features=320, bias=False)
                (to_out): ModuleList(
                  (0): Linear(in_features=320, out_features=320, bias=True)
                  (1): Dropout(p=0.0, inplace=False)
                )
              )
              (norm2): LayerNorm((320,), eps=1e-05, elementwise_affine=True)
              (attn2): Attention(
                (to_q): Linear(in_features=320, out_features=320, bias=False)
                (to_k): Linear(in_features=320, out_features=320, bias=False)
                (to_v): Linear(in_features=320, out_features=320, bias=False)
                (to_out): ModuleList(
                  (0): Linear(in_features=320, out_features=320, bias=True)
                  (1): Dropout(p=0.0, inplace=False)
                )
              )
              (norm3): LayerNorm((320,), eps=1e-05, elementwise_affine=True)
              (ff): FeedForward(
                (net): ModuleList(
                  (0): GEGLU(
                    (proj): Linear(in_features=320, out_features=2560, bias=True)
                  )
                  (1): Dropout(p=0.0, inplace=False)
                  (2): Linear(in_features=1280, out_features=320, bias=True)
                )
              )
            )
          )
          (proj_out): Linear(in_features=320, out_features=320, bias=True)
        )
      )
      (adapter_down): ModuleList(
        (0): down_channel(
          (conv): Conv2d(320, 40, kernel_size=(1, 1), stride=(1, 1))
          (norm): GroupNorm(4, 40, eps=1e-06, affine=True)
        )
        (1): down_channel(
          (conv): Conv2d(320, 40, kernel_size=(1, 1), stride=(1, 1))
          (norm): GroupNorm(4, 40, eps=1e-06, affine=True)
        )
      )
      (spatial_adapters_resnets): ModuleList(
        (0): ResnetBlock2D(
          (norm1): GroupNorm(4, 40, eps=1e-05, affine=True)
          (conv1): Conv2d(40, 40, kernel_size=(3, 3), stride=(1, 1), padding=(1, 1))
          (time_emb_proj): Linear(in_features=1280, out_features=40, bias=True)
          (norm2): GroupNorm(4, 40, eps=1e-05, affine=True)
          (dropout): Dropout(p=0.0, inplace=False)
          (conv2): Conv2d(40, 40, kernel_size=(3, 3), stride=(1, 1), padding=(1, 1))
          (nonlinearity): SiLU()
        )
        (1): ResnetBlock2D(
          (norm1): GroupNorm(4, 40, eps=1e-05, affine=True)
          (conv1): Conv2d(40, 40, kernel_size=(3, 3), stride=(1, 1), padding=(1, 1))
          (time_emb_proj): Linear(in_features=1280, out_features=40, bias=True)
          (norm2): GroupNorm(4, 40, eps=1e-05, affine=True)
          (dropout): Dropout(p=0.0, inplace=False)
          (conv2): Conv2d(40, 40, kernel_size=(3, 3), stride=(1, 1), padding=(1, 1))
          (nonlinearity): SiLU()
        )
      )
      (spatial_adapters_attentions): ModuleList(
        (0): Transformer2DModel(
          (norm): GroupNorm(4, 40, eps=1e-06, affine=True)
          (proj_in): Linear(in_features=40, out_features=40, bias=True)
          (transformer_blocks): ModuleList(
            (0): BasicTransformerBlock(
              (norm1): LayerNorm((40,), eps=1e-05, elementwise_affine=True)
              (attn1): Attention(
                (to_q): Linear(in_features=40, out_features=40, bias=False)
                (to_k): Linear(in_features=40, out_features=40, bias=False)
                (to_v): Linear(in_features=40, out_features=40, bias=False)
                (to_out): ModuleList(
                  (0): Linear(in_features=40, out_features=40, bias=True)
                  (1): Dropout(p=0.0, inplace=False)
                )
              )
              (norm2): LayerNorm((40,), eps=1e-05, elementwise_affine=True)
              (attn2): Attention(
                (to_q): Linear(in_features=40, out_features=40, bias=False)
                (to_k): Linear(in_features=1024, out_features=40, bias=False)
                (to_v): Linear(in_features=1024, out_features=40, bias=False)
                (to_out): ModuleList(
                  (0): Linear(in_features=40, out_features=40, bias=True)
                  (1): Dropout(p=0.0, inplace=False)
                )
              )
              (norm3): LayerNorm((40,), eps=1e-05, elementwise_affine=True)
              (ff): FeedForward(
                (net): ModuleList(
                  (0): GEGLU(
                    (proj): Linear(in_features=40, out_features=320, bias=True)
                  )
                  (1): Dropout(p=0.0, inplace=False)
                  (2): Linear(in_features=160, out_features=40, bias=True)
                )
              )
            )
          )
          (proj_out): Linear(in_features=40, out_features=40, bias=True)
        )
        (1): Transformer2DModel(
          (norm): GroupNorm(4, 40, eps=1e-06, affine=True)
          (proj_in): Linear(in_features=40, out_features=40, bias=True)
          (transformer_blocks): ModuleList(
            (0): BasicTransformerBlock(
              (norm1): LayerNorm((40,), eps=1e-05, elementwise_affine=True)
              (attn1): Attention(
                (to_q): Linear(in_features=40, out_features=40, bias=False)
                (to_k): Linear(in_features=40, out_features=40, bias=False)
                (to_v): Linear(in_features=40, out_features=40, bias=False)
                (to_out): ModuleList(
                  (0): Linear(in_features=40, out_features=40, bias=True)
                  (1): Dropout(p=0.0, inplace=False)
                )
              )
              (norm2): LayerNorm((40,), eps=1e-05, elementwise_affine=True)
              (attn2): Attention(
                (to_q): Linear(in_features=40, out_features=40, bias=False)
                (to_k): Linear(in_features=1024, out_features=40, bias=False)
                (to_v): Linear(in_features=1024, out_features=40, bias=False)
                (to_out): ModuleList(
                  (0): Linear(in_features=40, out_features=40, bias=True)
                  (1): Dropout(p=0.0, inplace=False)
                )
              )
              (norm3): LayerNorm((40,), eps=1e-05, elementwise_affine=True)
              (ff): FeedForward(
                (net): ModuleList(
                  (0): GEGLU(
                    (proj): Linear(in_features=40, out_features=320, bias=True)
                  )
                  (1): Dropout(p=0.0, inplace=False)
                  (2): Linear(in_features=160, out_features=40, bias=True)
                )
              )
            )
          )
          (proj_out): Linear(in_features=40, out_features=40, bias=True)
        )
      )
      (downsamplers): ModuleList(
        (0): Downsample2D(
          (conv): Conv2d(320, 320, kernel_size=(3, 3), stride=(2, 2), padding=(1, 1))
        )
      )
      (adpter_downsamplers): ModuleList(
        (0): Downsample2D(
          (conv): Conv2d(40, 40, kernel_size=(3, 3), stride=(2, 2), padding=(1, 1))
        )
      )
    )
    (1): CrossAttnDownBlock3D(
      (resnets): ModuleList(
        (0): ResnetBlock2D(
          (norm1): GroupNorm(32, 320, eps=1e-05, affine=True)
          (conv1): Conv2d(320, 640, kernel_size=(3, 3), stride=(1, 1), padding=(1, 1))
          (time_emb_proj): Linear(in_features=1280, out_features=640, bias=True)
          (norm2): GroupNorm(32, 640, eps=1e-05, affine=True)
          (dropout): Dropout(p=0.0, inplace=False)
          (conv2): Conv2d(640, 640, kernel_size=(3, 3), stride=(1, 1), padding=(1, 1))
          (nonlinearity): SiLU()
          (conv_shortcut): Conv2d(320, 640, kernel_size=(1, 1), stride=(1, 1))
        )
        (1): ResnetBlock2D(
          (norm1): GroupNorm(32, 640, eps=1e-05, affine=True)
          (conv1): Conv2d(640, 640, kernel_size=(3, 3), stride=(1, 1), padding=(1, 1))
          (time_emb_proj): Linear(in_features=1280, out_features=640, bias=True)
          (norm2): GroupNorm(32, 640, eps=1e-05, affine=True)
          (dropout): Dropout(p=0.0, inplace=False)
          (conv2): Conv2d(640, 640, kernel_size=(3, 3), stride=(1, 1), padding=(1, 1))
          (nonlinearity): SiLU()
        )
      )
      (temp_convs): ModuleList(
        (0): TemporalConvLayer(
          (proj_conv): Sequential(
            (0): GroupNorm(32, 320, eps=1e-05, affine=True)
            (1): SiLU()
            (2): Conv3d(320, 640, kernel_size=(3, 1, 1), stride=(1, 1, 1), padding=(1, 0, 0))
          )
          (conv1): Sequential(
            (0): GroupNorm(32, 640, eps=1e-05, affine=True)
            (1): SiLU()
            (2): Conv3d(640, 640, kernel_size=(3, 1, 1), stride=(1, 1, 1), padding=(1, 0, 0))
          )
          (conv2): Sequential(
            (0): GroupNorm(32, 640, eps=1e-05, affine=True)
            (1): SiLU()
            (2): Dropout(p=0.1, inplace=False)
            (3): Conv3d(640, 640, kernel_size=(3, 1, 1), stride=(1, 1, 1), padding=(1, 0, 0))
          )
          (conv3): Sequential(
            (0): GroupNorm(32, 640, eps=1e-05, affine=True)
            (1): SiLU()
            (2): Dropout(p=0.1, inplace=False)
            (3): Conv3d(640, 640, kernel_size=(3, 1, 1), stride=(1, 1, 1), padding=(1, 0, 0))
          )
          (conv4): Sequential(
            (0): GroupNorm(32, 640, eps=1e-05, affine=True)
            (1): SiLU()
            (2): Dropout(p=0.1, inplace=False)
            (3): Conv3d(640, 640, kernel_size=(3, 1, 1), stride=(1, 1, 1), padding=(1, 0, 0))
          )
        )
        (1): TemporalConvLayer(
          (proj_conv): Sequential(
            (0): GroupNorm(32, 640, eps=1e-05, affine=True)
            (1): SiLU()
            (2): Conv3d(640, 640, kernel_size=(3, 1, 1), stride=(1, 1, 1), padding=(1, 0, 0))
          )
          (conv1): Sequential(
            (0): GroupNorm(32, 640, eps=1e-05, affine=True)
            (1): SiLU()
            (2): Conv3d(640, 640, kernel_size=(3, 1, 1), stride=(1, 1, 1), padding=(1, 0, 0))
          )
          (conv2): Sequential(
            (0): GroupNorm(32, 640, eps=1e-05, affine=True)
            (1): SiLU()
            (2): Dropout(p=0.1, inplace=False)
            (3): Conv3d(640, 640, kernel_size=(3, 1, 1), stride=(1, 1, 1), padding=(1, 0, 0))
          )
          (conv3): Sequential(
            (0): GroupNorm(32, 640, eps=1e-05, affine=True)
            (1): SiLU()
            (2): Dropout(p=0.1, inplace=False)
            (3): Conv3d(640, 640, kernel_size=(3, 1, 1), stride=(1, 1, 1), padding=(1, 0, 0))
          )
          (conv4): Sequential(
            (0): GroupNorm(32, 640, eps=1e-05, affine=True)
            (1): SiLU()
            (2): Dropout(p=0.1, inplace=False)
            (3): Conv3d(640, 640, kernel_size=(3, 1, 1), stride=(1, 1, 1), padding=(1, 0, 0))
          )
        )
      )
      (attentions): ModuleList(
        (0): Transformer2DModel(
          (norm): GroupNorm(32, 640, eps=1e-06, affine=True)
          (proj_in): Linear(in_features=640, out_features=640, bias=True)
          (transformer_blocks): ModuleList(
            (0): BasicTransformerBlock(
              (norm1): LayerNorm((640,), eps=1e-05, elementwise_affine=True)
              (attn1): Attention(
                (to_q): Linear(in_features=640, out_features=640, bias=False)
                (to_k): Linear(in_features=640, out_features=640, bias=False)
                (to_v): Linear(in_features=640, out_features=640, bias=False)
                (to_out): ModuleList(
                  (0): Linear(in_features=640, out_features=640, bias=True)
                  (1): Dropout(p=0.0, inplace=False)
                )
              )
              (norm2): LayerNorm((640,), eps=1e-05, elementwise_affine=True)
              (attn2): Attention(
                (to_q): Linear(in_features=640, out_features=640, bias=False)
                (to_k): Linear(in_features=1024, out_features=640, bias=False)
                (to_v): Linear(in_features=1024, out_features=640, bias=False)
                (to_out): ModuleList(
                  (0): Linear(in_features=640, out_features=640, bias=True)
                  (1): Dropout(p=0.0, inplace=False)
                )
              )
              (norm3): LayerNorm((640,), eps=1e-05, elementwise_affine=True)
              (ff): FeedForward(
                (net): ModuleList(
                  (0): GEGLU(
                    (proj): Linear(in_features=640, out_features=5120, bias=True)
                  )
                  (1): Dropout(p=0.0, inplace=False)
                  (2): Linear(in_features=2560, out_features=640, bias=True)
                )
              )
            )
          )
          (proj_out): Linear(in_features=640, out_features=640, bias=True)
        )
        (1): Transformer2DModel(
          (norm): GroupNorm(32, 640, eps=1e-06, affine=True)
          (proj_in): Linear(in_features=640, out_features=640, bias=True)
          (transformer_blocks): ModuleList(
            (0): BasicTransformerBlock(
              (norm1): LayerNorm((640,), eps=1e-05, elementwise_affine=True)
              (attn1): Attention(
                (to_q): Linear(in_features=640, out_features=640, bias=False)
                (to_k): Linear(in_features=640, out_features=640, bias=False)
                (to_v): Linear(in_features=640, out_features=640, bias=False)
                (to_out): ModuleList(
                  (0): Linear(in_features=640, out_features=640, bias=True)
                  (1): Dropout(p=0.0, inplace=False)
                )
              )
              (norm2): LayerNorm((640,), eps=1e-05, elementwise_affine=True)
              (attn2): Attention(
                (to_q): Linear(in_features=640, out_features=640, bias=False)
                (to_k): Linear(in_features=1024, out_features=640, bias=False)
                (to_v): Linear(in_features=1024, out_features=640, bias=False)
                (to_out): ModuleList(
                  (0): Linear(in_features=640, out_features=640, bias=True)
                  (1): Dropout(p=0.0, inplace=False)
                )
              )
              (norm3): LayerNorm((640,), eps=1e-05, elementwise_affine=True)
              (ff): FeedForward(
                (net): ModuleList(
                  (0): GEGLU(
                    (proj): Linear(in_features=640, out_features=5120, bias=True)
                  )
                  (1): Dropout(p=0.0, inplace=False)
                  (2): Linear(in_features=2560, out_features=640, bias=True)
                )
              )
            )
          )
          (proj_out): Linear(in_features=640, out_features=640, bias=True)
        )
      )
      (temp_attentions): ModuleList(
        (0): TransformerTemporalModel(
          (norm): GroupNorm(32, 640, eps=1e-06, affine=True)
          (proj_in): Linear(in_features=640, out_features=640, bias=True)
          (transformer_blocks): ModuleList(
            (0): BasicTransformerBlock(
              (norm1): LayerNorm((640,), eps=1e-05, elementwise_affine=True)
              (attn1): Attention(
                (to_q): Linear(in_features=640, out_features=640, bias=False)
                (to_k): Linear(in_features=640, out_features=640, bias=False)
                (to_v): Linear(in_features=640, out_features=640, bias=False)
                (to_out): ModuleList(
                  (0): Linear(in_features=640, out_features=640, bias=True)
                  (1): Dropout(p=0.0, inplace=False)
                )
              )
              (norm2): LayerNorm((640,), eps=1e-05, elementwise_affine=True)
              (attn2): Attention(
                (to_q): Linear(in_features=640, out_features=640, bias=False)
                (to_k): Linear(in_features=640, out_features=640, bias=False)
                (to_v): Linear(in_features=640, out_features=640, bias=False)
                (to_out): ModuleList(
                  (0): Linear(in_features=640, out_features=640, bias=True)
                  (1): Dropout(p=0.0, inplace=False)
                )
              )
              (norm3): LayerNorm((640,), eps=1e-05, elementwise_affine=True)
              (ff): FeedForward(
                (net): ModuleList(
                  (0): GEGLU(
                    (proj): Linear(in_features=640, out_features=5120, bias=True)
                  )
                  (1): Dropout(p=0.0, inplace=False)
                  (2): Linear(in_features=2560, out_features=640, bias=True)
                )
              )
            )
          )
          (proj_out): Linear(in_features=640, out_features=640, bias=True)
        )
        (1): TransformerTemporalModel(
          (norm): GroupNorm(32, 640, eps=1e-06, affine=True)
          (proj_in): Linear(in_features=640, out_features=640, bias=True)
          (transformer_blocks): ModuleList(
            (0): BasicTransformerBlock(
              (norm1): LayerNorm((640,), eps=1e-05, elementwise_affine=True)
              (attn1): Attention(
                (to_q): Linear(in_features=640, out_features=640, bias=False)
                (to_k): Linear(in_features=640, out_features=640, bias=False)
                (to_v): Linear(in_features=640, out_features=640, bias=False)
                (to_out): ModuleList(
                  (0): Linear(in_features=640, out_features=640, bias=True)
                  (1): Dropout(p=0.0, inplace=False)
                )
              )
              (norm2): LayerNorm((640,), eps=1e-05, elementwise_affine=True)
              (attn2): Attention(
                (to_q): Linear(in_features=640, out_features=640, bias=False)
                (to_k): Linear(in_features=640, out_features=640, bias=False)
                (to_v): Linear(in_features=640, out_features=640, bias=False)
                (to_out): ModuleList(
                  (0): Linear(in_features=640, out_features=640, bias=True)
                  (1): Dropout(p=0.0, inplace=False)
                )
              )
              (norm3): LayerNorm((640,), eps=1e-05, elementwise_affine=True)
              (ff): FeedForward(
                (net): ModuleList(
                  (0): GEGLU(
                    (proj): Linear(in_features=640, out_features=5120, bias=True)
                  )
                  (1): Dropout(p=0.0, inplace=False)
                  (2): Linear(in_features=2560, out_features=640, bias=True)
                )
              )
            )
          )
          (proj_out): Linear(in_features=640, out_features=640, bias=True)
        )
      )
      (adapter_down): ModuleList(
        (0): down_channel(
          (conv): Conv2d(640, 80, kernel_size=(1, 1), stride=(1, 1))
          (norm): GroupNorm(4, 80, eps=1e-06, affine=True)
        )
        (1): down_channel(
          (conv): Conv2d(640, 80, kernel_size=(1, 1), stride=(1, 1))
          (norm): GroupNorm(4, 80, eps=1e-06, affine=True)
        )
      )
      (spatial_adapters_resnets): ModuleList(
        (0): ResnetBlock2D(
          (norm1): GroupNorm(4, 40, eps=1e-05, affine=True)
          (conv1): Conv2d(40, 80, kernel_size=(3, 3), stride=(1, 1), padding=(1, 1))
          (time_emb_proj): Linear(in_features=1280, out_features=80, bias=True)
          (norm2): GroupNorm(4, 80, eps=1e-05, affine=True)
          (dropout): Dropout(p=0.0, inplace=False)
          (conv2): Conv2d(80, 80, kernel_size=(3, 3), stride=(1, 1), padding=(1, 1))
          (nonlinearity): SiLU()
          (conv_shortcut): Conv2d(40, 80, kernel_size=(1, 1), stride=(1, 1))
        )
        (1): ResnetBlock2D(
          (norm1): GroupNorm(4, 80, eps=1e-05, affine=True)
          (conv1): Conv2d(80, 80, kernel_size=(3, 3), stride=(1, 1), padding=(1, 1))
          (time_emb_proj): Linear(in_features=1280, out_features=80, bias=True)
          (norm2): GroupNorm(4, 80, eps=1e-05, affine=True)
          (dropout): Dropout(p=0.0, inplace=False)
          (conv2): Conv2d(80, 80, kernel_size=(3, 3), stride=(1, 1), padding=(1, 1))
          (nonlinearity): SiLU()
        )
      )
      (spatial_adapters_attentions): ModuleList(
        (0): Transformer2DModel(
          (norm): GroupNorm(4, 80, eps=1e-06, affine=True)
          (proj_in): Linear(in_features=80, out_features=80, bias=True)
          (transformer_blocks): ModuleList(
            (0): BasicTransformerBlock(
              (norm1): LayerNorm((80,), eps=1e-05, elementwise_affine=True)
              (attn1): Attention(
                (to_q): Linear(in_features=80, out_features=80, bias=False)
                (to_k): Linear(in_features=80, out_features=80, bias=False)
                (to_v): Linear(in_features=80, out_features=80, bias=False)
                (to_out): ModuleList(
                  (0): Linear(in_features=80, out_features=80, bias=True)
                  (1): Dropout(p=0.0, inplace=False)
                )
              )
              (norm2): LayerNorm((80,), eps=1e-05, elementwise_affine=True)
              (attn2): Attention(
                (to_q): Linear(in_features=80, out_features=80, bias=False)
                (to_k): Linear(in_features=1024, out_features=80, bias=False)
                (to_v): Linear(in_features=1024, out_features=80, bias=False)
                (to_out): ModuleList(
                  (0): Linear(in_features=80, out_features=80, bias=True)
                  (1): Dropout(p=0.0, inplace=False)
                )
              )
              (norm3): LayerNorm((80,), eps=1e-05, elementwise_affine=True)
              (ff): FeedForward(
                (net): ModuleList(
                  (0): GEGLU(
                    (proj): Linear(in_features=80, out_features=640, bias=True)
                  )
                  (1): Dropout(p=0.0, inplace=False)
                  (2): Linear(in_features=320, out_features=80, bias=True)
                )
              )
            )
          )
          (proj_out): Linear(in_features=80, out_features=80, bias=True)
        )
        (1): Transformer2DModel(
          (norm): GroupNorm(4, 80, eps=1e-06, affine=True)
          (proj_in): Linear(in_features=80, out_features=80, bias=True)
          (transformer_blocks): ModuleList(
            (0): BasicTransformerBlock(
              (norm1): LayerNorm((80,), eps=1e-05, elementwise_affine=True)
              (attn1): Attention(
                (to_q): Linear(in_features=80, out_features=80, bias=False)
                (to_k): Linear(in_features=80, out_features=80, bias=False)
                (to_v): Linear(in_features=80, out_features=80, bias=False)
                (to_out): ModuleList(
                  (0): Linear(in_features=80, out_features=80, bias=True)
                  (1): Dropout(p=0.0, inplace=False)
                )
              )
              (norm2): LayerNorm((80,), eps=1e-05, elementwise_affine=True)
              (attn2): Attention(
                (to_q): Linear(in_features=80, out_features=80, bias=False)
                (to_k): Linear(in_features=1024, out_features=80, bias=False)
                (to_v): Linear(in_features=1024, out_features=80, bias=False)
                (to_out): ModuleList(
                  (0): Linear(in_features=80, out_features=80, bias=True)
                  (1): Dropout(p=0.0, inplace=False)
                )
              )
              (norm3): LayerNorm((80,), eps=1e-05, elementwise_affine=True)
              (ff): FeedForward(
                (net): ModuleList(
                  (0): GEGLU(
                    (proj): Linear(in_features=80, out_features=640, bias=True)
                  )
                  (1): Dropout(p=0.0, inplace=False)
                  (2): Linear(in_features=320, out_features=80, bias=True)
                )
              )
            )
          )
          (proj_out): Linear(in_features=80, out_features=80, bias=True)
        )
      )
      (downsamplers): ModuleList(
        (0): Downsample2D(
          (conv): Conv2d(640, 640, kernel_size=(3, 3), stride=(2, 2), padding=(1, 1))
        )
      )
      (adpter_downsamplers): ModuleList(
        (0): Downsample2D(
          (conv): Conv2d(80, 80, kernel_size=(3, 3), stride=(2, 2), padding=(1, 1))
        )
      )
    )
    (2): CrossAttnDownBlock3D(
      (resnets): ModuleList(
        (0): ResnetBlock2D(
          (norm1): GroupNorm(32, 640, eps=1e-05, affine=True)
          (conv1): Conv2d(640, 1280, kernel_size=(3, 3), stride=(1, 1), padding=(1, 1))
          (time_emb_proj): Linear(in_features=1280, out_features=1280, bias=True)
          (norm2): GroupNorm(32, 1280, eps=1e-05, affine=True)
          (dropout): Dropout(p=0.0, inplace=False)
          (conv2): Conv2d(1280, 1280, kernel_size=(3, 3), stride=(1, 1), padding=(1, 1))
          (nonlinearity): SiLU()
          (conv_shortcut): Conv2d(640, 1280, kernel_size=(1, 1), stride=(1, 1))
        )
        (1): ResnetBlock2D(
          (norm1): GroupNorm(32, 1280, eps=1e-05, affine=True)
          (conv1): Conv2d(1280, 1280, kernel_size=(3, 3), stride=(1, 1), padding=(1, 1))
          (time_emb_proj): Linear(in_features=1280, out_features=1280, bias=True)
          (norm2): GroupNorm(32, 1280, eps=1e-05, affine=True)
          (dropout): Dropout(p=0.0, inplace=False)
          (conv2): Conv2d(1280, 1280, kernel_size=(3, 3), stride=(1, 1), padding=(1, 1))
          (nonlinearity): SiLU()
        )
      )
      (temp_convs): ModuleList(
        (0): TemporalConvLayer(
          (proj_conv): Sequential(
            (0): GroupNorm(32, 640, eps=1e-05, affine=True)
            (1): SiLU()
            (2): Conv3d(640, 1280, kernel_size=(3, 1, 1), stride=(1, 1, 1), padding=(1, 0, 0))
          )
          (conv1): Sequential(
            (0): GroupNorm(32, 1280, eps=1e-05, affine=True)
            (1): SiLU()
            (2): Conv3d(1280, 1280, kernel_size=(3, 1, 1), stride=(1, 1, 1), padding=(1, 0, 0))
          )
          (conv2): Sequential(
            (0): GroupNorm(32, 1280, eps=1e-05, affine=True)
            (1): SiLU()
            (2): Dropout(p=0.1, inplace=False)
            (3): Conv3d(1280, 1280, kernel_size=(3, 1, 1), stride=(1, 1, 1), padding=(1, 0, 0))
          )
          (conv3): Sequential(
            (0): GroupNorm(32, 1280, eps=1e-05, affine=True)
            (1): SiLU()
            (2): Dropout(p=0.1, inplace=False)
            (3): Conv3d(1280, 1280, kernel_size=(3, 1, 1), stride=(1, 1, 1), padding=(1, 0, 0))
          )
          (conv4): Sequential(
            (0): GroupNorm(32, 1280, eps=1e-05, affine=True)
            (1): SiLU()
            (2): Dropout(p=0.1, inplace=False)
            (3): Conv3d(1280, 1280, kernel_size=(3, 1, 1), stride=(1, 1, 1), padding=(1, 0, 0))
          )
        )
        (1): TemporalConvLayer(
          (proj_conv): Sequential(
            (0): GroupNorm(32, 1280, eps=1e-05, affine=True)
            (1): SiLU()
            (2): Conv3d(1280, 1280, kernel_size=(3, 1, 1), stride=(1, 1, 1), padding=(1, 0, 0))
          )
          (conv1): Sequential(
            (0): GroupNorm(32, 1280, eps=1e-05, affine=True)
            (1): SiLU()
            (2): Conv3d(1280, 1280, kernel_size=(3, 1, 1), stride=(1, 1, 1), padding=(1, 0, 0))
          )
          (conv2): Sequential(
            (0): GroupNorm(32, 1280, eps=1e-05, affine=True)
            (1): SiLU()
            (2): Dropout(p=0.1, inplace=False)
            (3): Conv3d(1280, 1280, kernel_size=(3, 1, 1), stride=(1, 1, 1), padding=(1, 0, 0))
          )
          (conv3): Sequential(
            (0): GroupNorm(32, 1280, eps=1e-05, affine=True)
            (1): SiLU()
            (2): Dropout(p=0.1, inplace=False)
            (3): Conv3d(1280, 1280, kernel_size=(3, 1, 1), stride=(1, 1, 1), padding=(1, 0, 0))
          )
          (conv4): Sequential(
            (0): GroupNorm(32, 1280, eps=1e-05, affine=True)
            (1): SiLU()
            (2): Dropout(p=0.1, inplace=False)
            (3): Conv3d(1280, 1280, kernel_size=(3, 1, 1), stride=(1, 1, 1), padding=(1, 0, 0))
          )
        )
      )
      (attentions): ModuleList(
        (0): Transformer2DModel(
          (norm): GroupNorm(32, 1280, eps=1e-06, affine=True)
          (proj_in): Linear(in_features=1280, out_features=1280, bias=True)
          (transformer_blocks): ModuleList(
            (0): BasicTransformerBlock(
              (norm1): LayerNorm((1280,), eps=1e-05, elementwise_affine=True)
              (attn1): Attention(
                (to_q): Linear(in_features=1280, out_features=1280, bias=False)
                (to_k): Linear(in_features=1280, out_features=1280, bias=False)
                (to_v): Linear(in_features=1280, out_features=1280, bias=False)
                (to_out): ModuleList(
                  (0): Linear(in_features=1280, out_features=1280, bias=True)
                  (1): Dropout(p=0.0, inplace=False)
                )
              )
              (norm2): LayerNorm((1280,), eps=1e-05, elementwise_affine=True)
              (attn2): Attention(
                (to_q): Linear(in_features=1280, out_features=1280, bias=False)
                (to_k): Linear(in_features=1024, out_features=1280, bias=False)
                (to_v): Linear(in_features=1024, out_features=1280, bias=False)
                (to_out): ModuleList(
                  (0): Linear(in_features=1280, out_features=1280, bias=True)
                  (1): Dropout(p=0.0, inplace=False)
                )
              )
              (norm3): LayerNorm((1280,), eps=1e-05, elementwise_affine=True)
              (ff): FeedForward(
                (net): ModuleList(
                  (0): GEGLU(
                    (proj): Linear(in_features=1280, out_features=10240, bias=True)
                  )
                  (1): Dropout(p=0.0, inplace=False)
                  (2): Linear(in_features=5120, out_features=1280, bias=True)
                )
              )
            )
          )
          (proj_out): Linear(in_features=1280, out_features=1280, bias=True)
        )
        (1): Transformer2DModel(
          (norm): GroupNorm(32, 1280, eps=1e-06, affine=True)
          (proj_in): Linear(in_features=1280, out_features=1280, bias=True)
          (transformer_blocks): ModuleList(
            (0): BasicTransformerBlock(
              (norm1): LayerNorm((1280,), eps=1e-05, elementwise_affine=True)
              (attn1): Attention(
                (to_q): Linear(in_features=1280, out_features=1280, bias=False)
                (to_k): Linear(in_features=1280, out_features=1280, bias=False)
                (to_v): Linear(in_features=1280, out_features=1280, bias=False)
                (to_out): ModuleList(
                  (0): Linear(in_features=1280, out_features=1280, bias=True)
                  (1): Dropout(p=0.0, inplace=False)
                )
              )
              (norm2): LayerNorm((1280,), eps=1e-05, elementwise_affine=True)
              (attn2): Attention(
                (to_q): Linear(in_features=1280, out_features=1280, bias=False)
                (to_k): Linear(in_features=1024, out_features=1280, bias=False)
                (to_v): Linear(in_features=1024, out_features=1280, bias=False)
                (to_out): ModuleList(
                  (0): Linear(in_features=1280, out_features=1280, bias=True)
                  (1): Dropout(p=0.0, inplace=False)
                )
              )
              (norm3): LayerNorm((1280,), eps=1e-05, elementwise_affine=True)
              (ff): FeedForward(
                (net): ModuleList(
                  (0): GEGLU(
                    (proj): Linear(in_features=1280, out_features=10240, bias=True)
                  )
                  (1): Dropout(p=0.0, inplace=False)
                  (2): Linear(in_features=5120, out_features=1280, bias=True)
                )
              )
            )
          )
          (proj_out): Linear(in_features=1280, out_features=1280, bias=True)
        )
      )
      (temp_attentions): ModuleList(
        (0): TransformerTemporalModel(
          (norm): GroupNorm(32, 1280, eps=1e-06, affine=True)
          (proj_in): Linear(in_features=1280, out_features=1280, bias=True)
          (transformer_blocks): ModuleList(
            (0): BasicTransformerBlock(
              (norm1): LayerNorm((1280,), eps=1e-05, elementwise_affine=True)
              (attn1): Attention(
                (to_q): Linear(in_features=1280, out_features=1280, bias=False)
                (to_k): Linear(in_features=1280, out_features=1280, bias=False)
                (to_v): Linear(in_features=1280, out_features=1280, bias=False)
                (to_out): ModuleList(
                  (0): Linear(in_features=1280, out_features=1280, bias=True)
                  (1): Dropout(p=0.0, inplace=False)
                )
              )
              (norm2): LayerNorm((1280,), eps=1e-05, elementwise_affine=True)
              (attn2): Attention(
                (to_q): Linear(in_features=1280, out_features=1280, bias=False)
                (to_k): Linear(in_features=1280, out_features=1280, bias=False)
                (to_v): Linear(in_features=1280, out_features=1280, bias=False)
                (to_out): ModuleList(
                  (0): Linear(in_features=1280, out_features=1280, bias=True)
                  (1): Dropout(p=0.0, inplace=False)
                )
              )
              (norm3): LayerNorm((1280,), eps=1e-05, elementwise_affine=True)
              (ff): FeedForward(
                (net): ModuleList(
                  (0): GEGLU(
                    (proj): Linear(in_features=1280, out_features=10240, bias=True)
                  )
                  (1): Dropout(p=0.0, inplace=False)
                  (2): Linear(in_features=5120, out_features=1280, bias=True)
                )
              )
            )
          )
          (proj_out): Linear(in_features=1280, out_features=1280, bias=True)
        )
        (1): TransformerTemporalModel(
          (norm): GroupNorm(32, 1280, eps=1e-06, affine=True)
          (proj_in): Linear(in_features=1280, out_features=1280, bias=True)
          (transformer_blocks): ModuleList(
            (0): BasicTransformerBlock(
              (norm1): LayerNorm((1280,), eps=1e-05, elementwise_affine=True)
              (attn1): Attention(
                (to_q): Linear(in_features=1280, out_features=1280, bias=False)
                (to_k): Linear(in_features=1280, out_features=1280, bias=False)
                (to_v): Linear(in_features=1280, out_features=1280, bias=False)
                (to_out): ModuleList(
                  (0): Linear(in_features=1280, out_features=1280, bias=True)
                  (1): Dropout(p=0.0, inplace=False)
                )
              )
              (norm2): LayerNorm((1280,), eps=1e-05, elementwise_affine=True)
              (attn2): Attention(
                (to_q): Linear(in_features=1280, out_features=1280, bias=False)
                (to_k): Linear(in_features=1280, out_features=1280, bias=False)
                (to_v): Linear(in_features=1280, out_features=1280, bias=False)
                (to_out): ModuleList(
                  (0): Linear(in_features=1280, out_features=1280, bias=True)
                  (1): Dropout(p=0.0, inplace=False)
                )
              )
              (norm3): LayerNorm((1280,), eps=1e-05, elementwise_affine=True)
              (ff): FeedForward(
                (net): ModuleList(
                  (0): GEGLU(
                    (proj): Linear(in_features=1280, out_features=10240, bias=True)
                  )
                  (1): Dropout(p=0.0, inplace=False)
                  (2): Linear(in_features=5120, out_features=1280, bias=True)
                )
              )
            )
          )
          (proj_out): Linear(in_features=1280, out_features=1280, bias=True)
        )
      )
      (adapter_down): ModuleList(
        (0): down_channel(
          (conv): Conv2d(1280, 160, kernel_size=(1, 1), stride=(1, 1))
          (norm): GroupNorm(4, 160, eps=1e-06, affine=True)
        )
        (1): down_channel(
          (conv): Conv2d(1280, 160, kernel_size=(1, 1), stride=(1, 1))
          (norm): GroupNorm(4, 160, eps=1e-06, affine=True)
        )
      )
      (spatial_adapters_resnets): ModuleList(
        (0): ResnetBlock2D(
          (norm1): GroupNorm(4, 80, eps=1e-05, affine=True)
          (conv1): Conv2d(80, 160, kernel_size=(3, 3), stride=(1, 1), padding=(1, 1))
          (time_emb_proj): Linear(in_features=1280, out_features=160, bias=True)
          (norm2): GroupNorm(4, 160, eps=1e-05, affine=True)
          (dropout): Dropout(p=0.0, inplace=False)
          (conv2): Conv2d(160, 160, kernel_size=(3, 3), stride=(1, 1), padding=(1, 1))
          (nonlinearity): SiLU()
          (conv_shortcut): Conv2d(80, 160, kernel_size=(1, 1), stride=(1, 1))
        )
        (1): ResnetBlock2D(
          (norm1): GroupNorm(4, 160, eps=1e-05, affine=True)
          (conv1): Conv2d(160, 160, kernel_size=(3, 3), stride=(1, 1), padding=(1, 1))
          (time_emb_proj): Linear(in_features=1280, out_features=160, bias=True)
          (norm2): GroupNorm(4, 160, eps=1e-05, affine=True)
          (dropout): Dropout(p=0.0, inplace=False)
          (conv2): Conv2d(160, 160, kernel_size=(3, 3), stride=(1, 1), padding=(1, 1))
          (nonlinearity): SiLU()
        )
      )
      (spatial_adapters_attentions): ModuleList(
        (0): Transformer2DModel(
          (norm): GroupNorm(4, 160, eps=1e-06, affine=True)
          (proj_in): Linear(in_features=160, out_features=160, bias=True)
          (transformer_blocks): ModuleList(
            (0): BasicTransformerBlock(
              (norm1): LayerNorm((160,), eps=1e-05, elementwise_affine=True)
              (attn1): Attention(
                (to_q): Linear(in_features=160, out_features=160, bias=False)
                (to_k): Linear(in_features=160, out_features=160, bias=False)
                (to_v): Linear(in_features=160, out_features=160, bias=False)
                (to_out): ModuleList(
                  (0): Linear(in_features=160, out_features=160, bias=True)
                  (1): Dropout(p=0.0, inplace=False)
                )
              )
              (norm2): LayerNorm((160,), eps=1e-05, elementwise_affine=True)
              (attn2): Attention(
                (to_q): Linear(in_features=160, out_features=160, bias=False)
                (to_k): Linear(in_features=1024, out_features=160, bias=False)
                (to_v): Linear(in_features=1024, out_features=160, bias=False)
                (to_out): ModuleList(
                  (0): Linear(in_features=160, out_features=160, bias=True)
                  (1): Dropout(p=0.0, inplace=False)
                )
              )
              (norm3): LayerNorm((160,), eps=1e-05, elementwise_affine=True)
              (ff): FeedForward(
                (net): ModuleList(
                  (0): GEGLU(
                    (proj): Linear(in_features=160, out_features=1280, bias=True)
                  )
                  (1): Dropout(p=0.0, inplace=False)
                  (2): Linear(in_features=640, out_features=160, bias=True)
                )
              )
            )
          )
          (proj_out): Linear(in_features=160, out_features=160, bias=True)
        )
        (1): Transformer2DModel(
          (norm): GroupNorm(4, 160, eps=1e-06, affine=True)
          (proj_in): Linear(in_features=160, out_features=160, bias=True)
          (transformer_blocks): ModuleList(
            (0): BasicTransformerBlock(
              (norm1): LayerNorm((160,), eps=1e-05, elementwise_affine=True)
              (attn1): Attention(
                (to_q): Linear(in_features=160, out_features=160, bias=False)
                (to_k): Linear(in_features=160, out_features=160, bias=False)
                (to_v): Linear(in_features=160, out_features=160, bias=False)
                (to_out): ModuleList(
                  (0): Linear(in_features=160, out_features=160, bias=True)
                  (1): Dropout(p=0.0, inplace=False)
                )
              )
              (norm2): LayerNorm((160,), eps=1e-05, elementwise_affine=True)
              (attn2): Attention(
                (to_q): Linear(in_features=160, out_features=160, bias=False)
                (to_k): Linear(in_features=1024, out_features=160, bias=False)
                (to_v): Linear(in_features=1024, out_features=160, bias=False)
                (to_out): ModuleList(
                  (0): Linear(in_features=160, out_features=160, bias=True)
                  (1): Dropout(p=0.0, inplace=False)
                )
              )
              (norm3): LayerNorm((160,), eps=1e-05, elementwise_affine=True)
              (ff): FeedForward(
                (net): ModuleList(
                  (0): GEGLU(
                    (proj): Linear(in_features=160, out_features=1280, bias=True)
                  )
                  (1): Dropout(p=0.0, inplace=False)
                  (2): Linear(in_features=640, out_features=160, bias=True)
                )
              )
            )
          )
          (proj_out): Linear(in_features=160, out_features=160, bias=True)
        )
      )
      (downsamplers): ModuleList(
        (0): Downsample2D(
          (conv): Conv2d(1280, 1280, kernel_size=(3, 3), stride=(2, 2), padding=(1, 1))
        )
      )
      (adpter_downsamplers): ModuleList(
        (0): Downsample2D(
          (conv): Conv2d(160, 160, kernel_size=(3, 3), stride=(2, 2), padding=(1, 1))
        )
      )
    )
    (3): DownBlock3D(
      (resnets): ModuleList(
        (0): ResnetBlock2D(
          (norm1): GroupNorm(32, 1280, eps=1e-05, affine=True)
          (conv1): Conv2d(1280, 1280, kernel_size=(3, 3), stride=(1, 1), padding=(1, 1))
          (time_emb_proj): Linear(in_features=1280, out_features=1280, bias=True)
          (norm2): GroupNorm(32, 1280, eps=1e-05, affine=True)
          (dropout): Dropout(p=0.0, inplace=False)
          (conv2): Conv2d(1280, 1280, kernel_size=(3, 3), stride=(1, 1), padding=(1, 1))
          (nonlinearity): SiLU()
        )
        (1): ResnetBlock2D(
          (norm1): GroupNorm(32, 1280, eps=1e-05, affine=True)
          (conv1): Conv2d(1280, 1280, kernel_size=(3, 3), stride=(1, 1), padding=(1, 1))
          (time_emb_proj): Linear(in_features=1280, out_features=1280, bias=True)
          (norm2): GroupNorm(32, 1280, eps=1e-05, affine=True)
          (dropout): Dropout(p=0.0, inplace=False)
          (conv2): Conv2d(1280, 1280, kernel_size=(3, 3), stride=(1, 1), padding=(1, 1))
          (nonlinearity): SiLU()
        )
      )
      (temp_convs): ModuleList(
        (0): TemporalConvLayer(
          (proj_conv): Sequential(
            (0): GroupNorm(32, 1280, eps=1e-05, affine=True)
            (1): SiLU()
            (2): Conv3d(1280, 1280, kernel_size=(3, 1, 1), stride=(1, 1, 1), padding=(1, 0, 0))
          )
          (conv1): Sequential(
            (0): GroupNorm(32, 1280, eps=1e-05, affine=True)
            (1): SiLU()
            (2): Conv3d(1280, 1280, kernel_size=(3, 1, 1), stride=(1, 1, 1), padding=(1, 0, 0))
          )
          (conv2): Sequential(
            (0): GroupNorm(32, 1280, eps=1e-05, affine=True)
            (1): SiLU()
            (2): Dropout(p=0.1, inplace=False)
            (3): Conv3d(1280, 1280, kernel_size=(3, 1, 1), stride=(1, 1, 1), padding=(1, 0, 0))
          )
          (conv3): Sequential(
            (0): GroupNorm(32, 1280, eps=1e-05, affine=True)
            (1): SiLU()
            (2): Dropout(p=0.1, inplace=False)
            (3): Conv3d(1280, 1280, kernel_size=(3, 1, 1), stride=(1, 1, 1), padding=(1, 0, 0))
          )
          (conv4): Sequential(
            (0): GroupNorm(32, 1280, eps=1e-05, affine=True)
            (1): SiLU()
            (2): Dropout(p=0.1, inplace=False)
            (3): Conv3d(1280, 1280, kernel_size=(3, 1, 1), stride=(1, 1, 1), padding=(1, 0, 0))
          )
        )
        (1): TemporalConvLayer(
          (proj_conv): Sequential(
            (0): GroupNorm(32, 1280, eps=1e-05, affine=True)
            (1): SiLU()
            (2): Conv3d(1280, 1280, kernel_size=(3, 1, 1), stride=(1, 1, 1), padding=(1, 0, 0))
          )
          (conv1): Sequential(
            (0): GroupNorm(32, 1280, eps=1e-05, affine=True)
            (1): SiLU()
            (2): Conv3d(1280, 1280, kernel_size=(3, 1, 1), stride=(1, 1, 1), padding=(1, 0, 0))
          )
          (conv2): Sequential(
            (0): GroupNorm(32, 1280, eps=1e-05, affine=True)
            (1): SiLU()
            (2): Dropout(p=0.1, inplace=False)
            (3): Conv3d(1280, 1280, kernel_size=(3, 1, 1), stride=(1, 1, 1), padding=(1, 0, 0))
          )
          (conv3): Sequential(
            (0): GroupNorm(32, 1280, eps=1e-05, affine=True)
            (1): SiLU()
            (2): Dropout(p=0.1, inplace=False)
            (3): Conv3d(1280, 1280, kernel_size=(3, 1, 1), stride=(1, 1, 1), padding=(1, 0, 0))
          )
          (conv4): Sequential(
            (0): GroupNorm(32, 1280, eps=1e-05, affine=True)
            (1): SiLU()
            (2): Dropout(p=0.1, inplace=False)
            (3): Conv3d(1280, 1280, kernel_size=(3, 1, 1), stride=(1, 1, 1), padding=(1, 0, 0))
          )
        )
      )
      (spatial_adapters_resnets): ModuleList(
        (0): ResnetBlock2D(
          (norm1): GroupNorm(4, 160, eps=1e-05, affine=True)
          (conv1): Conv2d(160, 160, kernel_size=(3, 3), stride=(1, 1), padding=(1, 1))
          (time_emb_proj): Linear(in_features=1280, out_features=160, bias=True)
          (norm2): GroupNorm(4, 160, eps=1e-05, affine=True)
          (dropout): Dropout(p=0.0, inplace=False)
          (conv2): Conv2d(160, 160, kernel_size=(3, 3), stride=(1, 1), padding=(1, 1))
          (nonlinearity): SiLU()
        )
        (1): ResnetBlock2D(
          (norm1): GroupNorm(4, 160, eps=1e-05, affine=True)
          (conv1): Conv2d(160, 160, kernel_size=(3, 3), stride=(1, 1), padding=(1, 1))
          (time_emb_proj): Linear(in_features=1280, out_features=160, bias=True)
          (norm2): GroupNorm(4, 160, eps=1e-05, affine=True)
          (dropout): Dropout(p=0.0, inplace=False)
          (conv2): Conv2d(160, 160, kernel_size=(3, 3), stride=(1, 1), padding=(1, 1))
          (nonlinearity): SiLU()
        )
      )
      (adapter_down): ModuleList(
        (0): down_channel(
          (conv): Conv2d(1280, 160, kernel_size=(1, 1), stride=(1, 1))
          (norm): GroupNorm(4, 160, eps=1e-06, affine=True)
        )
        (1): down_channel(
          (conv): Conv2d(1280, 160, kernel_size=(1, 1), stride=(1, 1))
          (norm): GroupNorm(4, 160, eps=1e-06, affine=True)
        )
      )
    )
  )
  (up_blocks): ModuleList(
    (0): UpBlock3D(
      (resnets): ModuleList(
        (0): ResnetBlock2D(
          (norm1): GroupNorm(32, 2560, eps=1e-05, affine=True)
          (conv1): Conv2d(2560, 1280, kernel_size=(3, 3), stride=(1, 1), padding=(1, 1))
          (time_emb_proj): Linear(in_features=1280, out_features=1280, bias=True)
          (norm2): GroupNorm(32, 1280, eps=1e-05, affine=True)
          (dropout): Dropout(p=0.0, inplace=False)
          (conv2): Conv2d(1280, 1280, kernel_size=(3, 3), stride=(1, 1), padding=(1, 1))
          (nonlinearity): SiLU()
          (conv_shortcut): Conv2d(2560, 1280, kernel_size=(1, 1), stride=(1, 1))
        )
        (1): ResnetBlock2D(
          (norm1): GroupNorm(32, 2560, eps=1e-05, affine=True)
          (conv1): Conv2d(2560, 1280, kernel_size=(3, 3), stride=(1, 1), padding=(1, 1))
          (time_emb_proj): Linear(in_features=1280, out_features=1280, bias=True)
          (norm2): GroupNorm(32, 1280, eps=1e-05, affine=True)
          (dropout): Dropout(p=0.0, inplace=False)
          (conv2): Conv2d(1280, 1280, kernel_size=(3, 3), stride=(1, 1), padding=(1, 1))
          (nonlinearity): SiLU()
          (conv_shortcut): Conv2d(2560, 1280, kernel_size=(1, 1), stride=(1, 1))
        )
        (2): ResnetBlock2D(
          (norm1): GroupNorm(32, 2560, eps=1e-05, affine=True)
          (conv1): Conv2d(2560, 1280, kernel_size=(3, 3), stride=(1, 1), padding=(1, 1))
          (time_emb_proj): Linear(in_features=1280, out_features=1280, bias=True)
          (norm2): GroupNorm(32, 1280, eps=1e-05, affine=True)
          (dropout): Dropout(p=0.0, inplace=False)
          (conv2): Conv2d(1280, 1280, kernel_size=(3, 3), stride=(1, 1), padding=(1, 1))
          (nonlinearity): SiLU()
          (conv_shortcut): Conv2d(2560, 1280, kernel_size=(1, 1), stride=(1, 1))
        )
      )
      (temp_convs): ModuleList(
        (0): TemporalConvLayer(
          (proj_conv): Sequential(
            (0): GroupNorm(32, 2560, eps=1e-05, affine=True)
            (1): SiLU()
            (2): Conv3d(2560, 1280, kernel_size=(3, 1, 1), stride=(1, 1, 1), padding=(1, 0, 0))
          )
          (conv1): Sequential(
            (0): GroupNorm(32, 1280, eps=1e-05, affine=True)
            (1): SiLU()
            (2): Conv3d(1280, 1280, kernel_size=(3, 1, 1), stride=(1, 1, 1), padding=(1, 0, 0))
          )
          (conv2): Sequential(
            (0): GroupNorm(32, 1280, eps=1e-05, affine=True)
            (1): SiLU()
            (2): Dropout(p=0.1, inplace=False)
            (3): Conv3d(1280, 1280, kernel_size=(3, 1, 1), stride=(1, 1, 1), padding=(1, 0, 0))
          )
          (conv3): Sequential(
            (0): GroupNorm(32, 1280, eps=1e-05, affine=True)
            (1): SiLU()
            (2): Dropout(p=0.1, inplace=False)
            (3): Conv3d(1280, 1280, kernel_size=(3, 1, 1), stride=(1, 1, 1), padding=(1, 0, 0))
          )
          (conv4): Sequential(
            (0): GroupNorm(32, 1280, eps=1e-05, affine=True)
            (1): SiLU()
            (2): Dropout(p=0.1, inplace=False)
            (3): Conv3d(1280, 1280, kernel_size=(3, 1, 1), stride=(1, 1, 1), padding=(1, 0, 0))
          )
        )
        (1): TemporalConvLayer(
          (proj_conv): Sequential(
            (0): GroupNorm(32, 2560, eps=1e-05, affine=True)
            (1): SiLU()
            (2): Conv3d(2560, 1280, kernel_size=(3, 1, 1), stride=(1, 1, 1), padding=(1, 0, 0))
          )
          (conv1): Sequential(
            (0): GroupNorm(32, 1280, eps=1e-05, affine=True)
            (1): SiLU()
            (2): Conv3d(1280, 1280, kernel_size=(3, 1, 1), stride=(1, 1, 1), padding=(1, 0, 0))
          )
          (conv2): Sequential(
            (0): GroupNorm(32, 1280, eps=1e-05, affine=True)
            (1): SiLU()
            (2): Dropout(p=0.1, inplace=False)
            (3): Conv3d(1280, 1280, kernel_size=(3, 1, 1), stride=(1, 1, 1), padding=(1, 0, 0))
          )
          (conv3): Sequential(
            (0): GroupNorm(32, 1280, eps=1e-05, affine=True)
            (1): SiLU()
            (2): Dropout(p=0.1, inplace=False)
            (3): Conv3d(1280, 1280, kernel_size=(3, 1, 1), stride=(1, 1, 1), padding=(1, 0, 0))
          )
          (conv4): Sequential(
            (0): GroupNorm(32, 1280, eps=1e-05, affine=True)
            (1): SiLU()
            (2): Dropout(p=0.1, inplace=False)
            (3): Conv3d(1280, 1280, kernel_size=(3, 1, 1), stride=(1, 1, 1), padding=(1, 0, 0))
          )
        )
        (2): TemporalConvLayer(
          (proj_conv): Sequential(
            (0): GroupNorm(32, 2560, eps=1e-05, affine=True)
            (1): SiLU()
            (2): Conv3d(2560, 1280, kernel_size=(3, 1, 1), stride=(1, 1, 1), padding=(1, 0, 0))
          )
          (conv1): Sequential(
            (0): GroupNorm(32, 1280, eps=1e-05, affine=True)
            (1): SiLU()
            (2): Conv3d(1280, 1280, kernel_size=(3, 1, 1), stride=(1, 1, 1), padding=(1, 0, 0))
          )
          (conv2): Sequential(
            (0): GroupNorm(32, 1280, eps=1e-05, affine=True)
            (1): SiLU()
            (2): Dropout(p=0.1, inplace=False)
            (3): Conv3d(1280, 1280, kernel_size=(3, 1, 1), stride=(1, 1, 1), padding=(1, 0, 0))
          )
          (conv3): Sequential(
            (0): GroupNorm(32, 1280, eps=1e-05, affine=True)
            (1): SiLU()
            (2): Dropout(p=0.1, inplace=False)
            (3): Conv3d(1280, 1280, kernel_size=(3, 1, 1), stride=(1, 1, 1), padding=(1, 0, 0))
          )
          (conv4): Sequential(
            (0): GroupNorm(32, 1280, eps=1e-05, affine=True)
            (1): SiLU()
            (2): Dropout(p=0.1, inplace=False)
            (3): Conv3d(1280, 1280, kernel_size=(3, 1, 1), stride=(1, 1, 1), padding=(1, 0, 0))
          )
        )
      )
      (spatial_adapters_resnets): ModuleList(
        (0): ResnetBlock2D(
          (norm1): GroupNorm(4, 320, eps=1e-05, affine=True)
          (conv1): Conv2d(320, 160, kernel_size=(3, 3), stride=(1, 1), padding=(1, 1))
          (time_emb_proj): Linear(in_features=1280, out_features=160, bias=True)
          (norm2): GroupNorm(4, 160, eps=1e-05, affine=True)
          (dropout): Dropout(p=0.0, inplace=False)
          (conv2): Conv2d(160, 160, kernel_size=(3, 3), stride=(1, 1), padding=(1, 1))
          (nonlinearity): SiLU()
          (conv_shortcut): Conv2d(320, 160, kernel_size=(1, 1), stride=(1, 1))
        )
        (1): ResnetBlock2D(
          (norm1): GroupNorm(4, 320, eps=1e-05, affine=True)
          (conv1): Conv2d(320, 160, kernel_size=(3, 3), stride=(1, 1), padding=(1, 1))
          (time_emb_proj): Linear(in_features=1280, out_features=160, bias=True)
          (norm2): GroupNorm(4, 160, eps=1e-05, affine=True)
          (dropout): Dropout(p=0.0, inplace=False)
          (conv2): Conv2d(160, 160, kernel_size=(3, 3), stride=(1, 1), padding=(1, 1))
          (nonlinearity): SiLU()
          (conv_shortcut): Conv2d(320, 160, kernel_size=(1, 1), stride=(1, 1))
        )
        (2): ResnetBlock2D(
          (norm1): GroupNorm(4, 320, eps=1e-05, affine=True)
          (conv1): Conv2d(320, 160, kernel_size=(3, 3), stride=(1, 1), padding=(1, 1))
          (time_emb_proj): Linear(in_features=1280, out_features=160, bias=True)
          (norm2): GroupNorm(4, 160, eps=1e-05, affine=True)
          (dropout): Dropout(p=0.0, inplace=False)
          (conv2): Conv2d(160, 160, kernel_size=(3, 3), stride=(1, 1), padding=(1, 1))
          (nonlinearity): SiLU()
          (conv_shortcut): Conv2d(320, 160, kernel_size=(1, 1), stride=(1, 1))
        )
      )
      (adapter_down): ModuleList(
        (0): down_channel(
          (conv): Conv2d(1280, 160, kernel_size=(1, 1), stride=(1, 1))
          (norm): GroupNorm(4, 160, eps=1e-06, affine=True)
        )
        (1): down_channel(
          (conv): Conv2d(1280, 160, kernel_size=(1, 1), stride=(1, 1))
          (norm): GroupNorm(4, 160, eps=1e-06, affine=True)
        )
        (2): down_channel(
          (conv): Conv2d(1280, 160, kernel_size=(1, 1), stride=(1, 1))
          (norm): GroupNorm(4, 160, eps=1e-06, affine=True)
        )
      )
      (upsamplers): ModuleList(
        (0): Upsample2D(
          (conv): Conv2d(1280, 1280, kernel_size=(3, 3), stride=(1, 1), padding=(1, 1))
        )
      )
      (adapter_upsaplers): ModuleList(
        (0): Upsample2D(
          (conv): Conv2d(160, 160, kernel_size=(3, 3), stride=(1, 1), padding=(1, 1))
        )
      )
    )
    (1): CrossAttnUpBlock3D(
      (resnets): ModuleList(
        (0): ResnetBlock2D(
          (norm1): GroupNorm(32, 2560, eps=1e-05, affine=True)
          (conv1): Conv2d(2560, 1280, kernel_size=(3, 3), stride=(1, 1), padding=(1, 1))
          (time_emb_proj): Linear(in_features=1280, out_features=1280, bias=True)
          (norm2): GroupNorm(32, 1280, eps=1e-05, affine=True)
          (dropout): Dropout(p=0.0, inplace=False)
          (conv2): Conv2d(1280, 1280, kernel_size=(3, 3), stride=(1, 1), padding=(1, 1))
          (nonlinearity): SiLU()
          (conv_shortcut): Conv2d(2560, 1280, kernel_size=(1, 1), stride=(1, 1))
        )
        (1): ResnetBlock2D(
          (norm1): GroupNorm(32, 2560, eps=1e-05, affine=True)
          (conv1): Conv2d(2560, 1280, kernel_size=(3, 3), stride=(1, 1), padding=(1, 1))
          (time_emb_proj): Linear(in_features=1280, out_features=1280, bias=True)
          (norm2): GroupNorm(32, 1280, eps=1e-05, affine=True)
          (dropout): Dropout(p=0.0, inplace=False)
          (conv2): Conv2d(1280, 1280, kernel_size=(3, 3), stride=(1, 1), padding=(1, 1))
          (nonlinearity): SiLU()
          (conv_shortcut): Conv2d(2560, 1280, kernel_size=(1, 1), stride=(1, 1))
        )
        (2): ResnetBlock2D(
          (norm1): GroupNorm(32, 1920, eps=1e-05, affine=True)
          (conv1): Conv2d(1920, 1280, kernel_size=(3, 3), stride=(1, 1), padding=(1, 1))
          (time_emb_proj): Linear(in_features=1280, out_features=1280, bias=True)
          (norm2): GroupNorm(32, 1280, eps=1e-05, affine=True)
          (dropout): Dropout(p=0.0, inplace=False)
          (conv2): Conv2d(1280, 1280, kernel_size=(3, 3), stride=(1, 1), padding=(1, 1))
          (nonlinearity): SiLU()
          (conv_shortcut): Conv2d(1920, 1280, kernel_size=(1, 1), stride=(1, 1))
        )
      )
      (temp_convs): ModuleList(
        (0): TemporalConvLayer(
          (proj_conv): Sequential(
            (0): GroupNorm(32, 2560, eps=1e-05, affine=True)
            (1): SiLU()
            (2): Conv3d(2560, 1280, kernel_size=(3, 1, 1), stride=(1, 1, 1), padding=(1, 0, 0))
          )
          (conv1): Sequential(
            (0): GroupNorm(32, 1280, eps=1e-05, affine=True)
            (1): SiLU()
            (2): Conv3d(1280, 1280, kernel_size=(3, 1, 1), stride=(1, 1, 1), padding=(1, 0, 0))
          )
          (conv2): Sequential(
            (0): GroupNorm(32, 1280, eps=1e-05, affine=True)
            (1): SiLU()
            (2): Dropout(p=0.1, inplace=False)
            (3): Conv3d(1280, 1280, kernel_size=(3, 1, 1), stride=(1, 1, 1), padding=(1, 0, 0))
          )
          (conv3): Sequential(
            (0): GroupNorm(32, 1280, eps=1e-05, affine=True)
            (1): SiLU()
            (2): Dropout(p=0.1, inplace=False)
            (3): Conv3d(1280, 1280, kernel_size=(3, 1, 1), stride=(1, 1, 1), padding=(1, 0, 0))
          )
          (conv4): Sequential(
            (0): GroupNorm(32, 1280, eps=1e-05, affine=True)
            (1): SiLU()
            (2): Dropout(p=0.1, inplace=False)
            (3): Conv3d(1280, 1280, kernel_size=(3, 1, 1), stride=(1, 1, 1), padding=(1, 0, 0))
          )
        )
        (1): TemporalConvLayer(
          (proj_conv): Sequential(
            (0): GroupNorm(32, 2560, eps=1e-05, affine=True)
            (1): SiLU()
            (2): Conv3d(2560, 1280, kernel_size=(3, 1, 1), stride=(1, 1, 1), padding=(1, 0, 0))
          )
          (conv1): Sequential(
            (0): GroupNorm(32, 1280, eps=1e-05, affine=True)
            (1): SiLU()
            (2): Conv3d(1280, 1280, kernel_size=(3, 1, 1), stride=(1, 1, 1), padding=(1, 0, 0))
          )
          (conv2): Sequential(
            (0): GroupNorm(32, 1280, eps=1e-05, affine=True)
            (1): SiLU()
            (2): Dropout(p=0.1, inplace=False)
            (3): Conv3d(1280, 1280, kernel_size=(3, 1, 1), stride=(1, 1, 1), padding=(1, 0, 0))
          )
          (conv3): Sequential(
            (0): GroupNorm(32, 1280, eps=1e-05, affine=True)
            (1): SiLU()
            (2): Dropout(p=0.1, inplace=False)
            (3): Conv3d(1280, 1280, kernel_size=(3, 1, 1), stride=(1, 1, 1), padding=(1, 0, 0))
          )
          (conv4): Sequential(
            (0): GroupNorm(32, 1280, eps=1e-05, affine=True)
            (1): SiLU()
            (2): Dropout(p=0.1, inplace=False)
            (3): Conv3d(1280, 1280, kernel_size=(3, 1, 1), stride=(1, 1, 1), padding=(1, 0, 0))
          )
        )
        (2): TemporalConvLayer(
          (proj_conv): Sequential(
            (0): GroupNorm(32, 1920, eps=1e-05, affine=True)
            (1): SiLU()
            (2): Conv3d(1920, 1280, kernel_size=(3, 1, 1), stride=(1, 1, 1), padding=(1, 0, 0))
          )
          (conv1): Sequential(
            (0): GroupNorm(32, 1280, eps=1e-05, affine=True)
            (1): SiLU()
            (2): Conv3d(1280, 1280, kernel_size=(3, 1, 1), stride=(1, 1, 1), padding=(1, 0, 0))
          )
          (conv2): Sequential(
            (0): GroupNorm(32, 1280, eps=1e-05, affine=True)
            (1): SiLU()
            (2): Dropout(p=0.1, inplace=False)
            (3): Conv3d(1280, 1280, kernel_size=(3, 1, 1), stride=(1, 1, 1), padding=(1, 0, 0))
          )
          (conv3): Sequential(
            (0): GroupNorm(32, 1280, eps=1e-05, affine=True)
            (1): SiLU()
            (2): Dropout(p=0.1, inplace=False)
            (3): Conv3d(1280, 1280, kernel_size=(3, 1, 1), stride=(1, 1, 1), padding=(1, 0, 0))
          )
          (conv4): Sequential(
            (0): GroupNorm(32, 1280, eps=1e-05, affine=True)
            (1): SiLU()
            (2): Dropout(p=0.1, inplace=False)
            (3): Conv3d(1280, 1280, kernel_size=(3, 1, 1), stride=(1, 1, 1), padding=(1, 0, 0))
          )
        )
      )
      (attentions): ModuleList(
        (0): Transformer2DModel(
          (norm): GroupNorm(32, 1280, eps=1e-06, affine=True)
          (proj_in): Linear(in_features=1280, out_features=1280, bias=True)
          (transformer_blocks): ModuleList(
            (0): BasicTransformerBlock(
              (norm1): LayerNorm((1280,), eps=1e-05, elementwise_affine=True)
              (attn1): Attention(
                (to_q): Linear(in_features=1280, out_features=1280, bias=False)
                (to_k): Linear(in_features=1280, out_features=1280, bias=False)
                (to_v): Linear(in_features=1280, out_features=1280, bias=False)
                (to_out): ModuleList(
                  (0): Linear(in_features=1280, out_features=1280, bias=True)
                  (1): Dropout(p=0.0, inplace=False)
                )
              )
              (norm2): LayerNorm((1280,), eps=1e-05, elementwise_affine=True)
              (attn2): Attention(
                (to_q): Linear(in_features=1280, out_features=1280, bias=False)
                (to_k): Linear(in_features=1024, out_features=1280, bias=False)
                (to_v): Linear(in_features=1024, out_features=1280, bias=False)
                (to_out): ModuleList(
                  (0): Linear(in_features=1280, out_features=1280, bias=True)
                  (1): Dropout(p=0.0, inplace=False)
                )
              )
              (norm3): LayerNorm((1280,), eps=1e-05, elementwise_affine=True)
              (ff): FeedForward(
                (net): ModuleList(
                  (0): GEGLU(
                    (proj): Linear(in_features=1280, out_features=10240, bias=True)
                  )
                  (1): Dropout(p=0.0, inplace=False)
                  (2): Linear(in_features=5120, out_features=1280, bias=True)
                )
              )
            )
          )
          (proj_out): Linear(in_features=1280, out_features=1280, bias=True)
        )
        (1): Transformer2DModel(
          (norm): GroupNorm(32, 1280, eps=1e-06, affine=True)
          (proj_in): Linear(in_features=1280, out_features=1280, bias=True)
          (transformer_blocks): ModuleList(
            (0): BasicTransformerBlock(
              (norm1): LayerNorm((1280,), eps=1e-05, elementwise_affine=True)
              (attn1): Attention(
                (to_q): Linear(in_features=1280, out_features=1280, bias=False)
                (to_k): Linear(in_features=1280, out_features=1280, bias=False)
                (to_v): Linear(in_features=1280, out_features=1280, bias=False)
                (to_out): ModuleList(
                  (0): Linear(in_features=1280, out_features=1280, bias=True)
                  (1): Dropout(p=0.0, inplace=False)
                )
              )
              (norm2): LayerNorm((1280,), eps=1e-05, elementwise_affine=True)
              (attn2): Attention(
                (to_q): Linear(in_features=1280, out_features=1280, bias=False)
                (to_k): Linear(in_features=1024, out_features=1280, bias=False)
                (to_v): Linear(in_features=1024, out_features=1280, bias=False)
                (to_out): ModuleList(
                  (0): Linear(in_features=1280, out_features=1280, bias=True)
                  (1): Dropout(p=0.0, inplace=False)
                )
              )
              (norm3): LayerNorm((1280,), eps=1e-05, elementwise_affine=True)
              (ff): FeedForward(
                (net): ModuleList(
                  (0): GEGLU(
                    (proj): Linear(in_features=1280, out_features=10240, bias=True)
                  )
                  (1): Dropout(p=0.0, inplace=False)
                  (2): Linear(in_features=5120, out_features=1280, bias=True)
                )
              )
            )
          )
          (proj_out): Linear(in_features=1280, out_features=1280, bias=True)
        )
        (2): Transformer2DModel(
          (norm): GroupNorm(32, 1280, eps=1e-06, affine=True)
          (proj_in): Linear(in_features=1280, out_features=1280, bias=True)
          (transformer_blocks): ModuleList(
            (0): BasicTransformerBlock(
              (norm1): LayerNorm((1280,), eps=1e-05, elementwise_affine=True)
              (attn1): Attention(
                (to_q): Linear(in_features=1280, out_features=1280, bias=False)
                (to_k): Linear(in_features=1280, out_features=1280, bias=False)
                (to_v): Linear(in_features=1280, out_features=1280, bias=False)
                (to_out): ModuleList(
                  (0): Linear(in_features=1280, out_features=1280, bias=True)
                  (1): Dropout(p=0.0, inplace=False)
                )
              )
              (norm2): LayerNorm((1280,), eps=1e-05, elementwise_affine=True)
              (attn2): Attention(
                (to_q): Linear(in_features=1280, out_features=1280, bias=False)
                (to_k): Linear(in_features=1024, out_features=1280, bias=False)
                (to_v): Linear(in_features=1024, out_features=1280, bias=False)
                (to_out): ModuleList(
                  (0): Linear(in_features=1280, out_features=1280, bias=True)
                  (1): Dropout(p=0.0, inplace=False)
                )
              )
              (norm3): LayerNorm((1280,), eps=1e-05, elementwise_affine=True)
              (ff): FeedForward(
                (net): ModuleList(
                  (0): GEGLU(
                    (proj): Linear(in_features=1280, out_features=10240, bias=True)
                  )
                  (1): Dropout(p=0.0, inplace=False)
                  (2): Linear(in_features=5120, out_features=1280, bias=True)
                )
              )
            )
          )
          (proj_out): Linear(in_features=1280, out_features=1280, bias=True)
        )
      )
      (temp_attentions): ModuleList(
        (0): TransformerTemporalModel(
          (norm): GroupNorm(32, 1280, eps=1e-06, affine=True)
          (proj_in): Linear(in_features=1280, out_features=1280, bias=True)
          (transformer_blocks): ModuleList(
            (0): BasicTransformerBlock(
              (norm1): LayerNorm((1280,), eps=1e-05, elementwise_affine=True)
              (attn1): Attention(
                (to_q): Linear(in_features=1280, out_features=1280, bias=False)
                (to_k): Linear(in_features=1280, out_features=1280, bias=False)
                (to_v): Linear(in_features=1280, out_features=1280, bias=False)
                (to_out): ModuleList(
                  (0): Linear(in_features=1280, out_features=1280, bias=True)
                  (1): Dropout(p=0.0, inplace=False)
                )
              )
              (norm2): LayerNorm((1280,), eps=1e-05, elementwise_affine=True)
              (attn2): Attention(
                (to_q): Linear(in_features=1280, out_features=1280, bias=False)
                (to_k): Linear(in_features=1280, out_features=1280, bias=False)
                (to_v): Linear(in_features=1280, out_features=1280, bias=False)
                (to_out): ModuleList(
                  (0): Linear(in_features=1280, out_features=1280, bias=True)
                  (1): Dropout(p=0.0, inplace=False)
                )
              )
              (norm3): LayerNorm((1280,), eps=1e-05, elementwise_affine=True)
              (ff): FeedForward(
                (net): ModuleList(
                  (0): GEGLU(
                    (proj): Linear(in_features=1280, out_features=10240, bias=True)
                  )
                  (1): Dropout(p=0.0, inplace=False)
                  (2): Linear(in_features=5120, out_features=1280, bias=True)
                )
              )
            )
          )
          (proj_out): Linear(in_features=1280, out_features=1280, bias=True)
        )
        (1): TransformerTemporalModel(
          (norm): GroupNorm(32, 1280, eps=1e-06, affine=True)
          (proj_in): Linear(in_features=1280, out_features=1280, bias=True)
          (transformer_blocks): ModuleList(
            (0): BasicTransformerBlock(
              (norm1): LayerNorm((1280,), eps=1e-05, elementwise_affine=True)
              (attn1): Attention(
                (to_q): Linear(in_features=1280, out_features=1280, bias=False)
                (to_k): Linear(in_features=1280, out_features=1280, bias=False)
                (to_v): Linear(in_features=1280, out_features=1280, bias=False)
                (to_out): ModuleList(
                  (0): Linear(in_features=1280, out_features=1280, bias=True)
                  (1): Dropout(p=0.0, inplace=False)
                )
              )
              (norm2): LayerNorm((1280,), eps=1e-05, elementwise_affine=True)
              (attn2): Attention(
                (to_q): Linear(in_features=1280, out_features=1280, bias=False)
                (to_k): Linear(in_features=1280, out_features=1280, bias=False)
                (to_v): Linear(in_features=1280, out_features=1280, bias=False)
                (to_out): ModuleList(
                  (0): Linear(in_features=1280, out_features=1280, bias=True)
                  (1): Dropout(p=0.0, inplace=False)
                )
              )
              (norm3): LayerNorm((1280,), eps=1e-05, elementwise_affine=True)
              (ff): FeedForward(
                (net): ModuleList(
                  (0): GEGLU(
                    (proj): Linear(in_features=1280, out_features=10240, bias=True)
                  )
                  (1): Dropout(p=0.0, inplace=False)
                  (2): Linear(in_features=5120, out_features=1280, bias=True)
                )
              )
            )
          )
          (proj_out): Linear(in_features=1280, out_features=1280, bias=True)
        )
        (2): TransformerTemporalModel(
          (norm): GroupNorm(32, 1280, eps=1e-06, affine=True)
          (proj_in): Linear(in_features=1280, out_features=1280, bias=True)
          (transformer_blocks): ModuleList(
            (0): BasicTransformerBlock(
              (norm1): LayerNorm((1280,), eps=1e-05, elementwise_affine=True)
              (attn1): Attention(
                (to_q): Linear(in_features=1280, out_features=1280, bias=False)
                (to_k): Linear(in_features=1280, out_features=1280, bias=False)
                (to_v): Linear(in_features=1280, out_features=1280, bias=False)
                (to_out): ModuleList(
                  (0): Linear(in_features=1280, out_features=1280, bias=True)
                  (1): Dropout(p=0.0, inplace=False)
                )
              )
              (norm2): LayerNorm((1280,), eps=1e-05, elementwise_affine=True)
              (attn2): Attention(
                (to_q): Linear(in_features=1280, out_features=1280, bias=False)
                (to_k): Linear(in_features=1280, out_features=1280, bias=False)
                (to_v): Linear(in_features=1280, out_features=1280, bias=False)
                (to_out): ModuleList(
                  (0): Linear(in_features=1280, out_features=1280, bias=True)
                  (1): Dropout(p=0.0, inplace=False)
                )
              )
              (norm3): LayerNorm((1280,), eps=1e-05, elementwise_affine=True)
              (ff): FeedForward(
                (net): ModuleList(
                  (0): GEGLU(
                    (proj): Linear(in_features=1280, out_features=10240, bias=True)
                  )
                  (1): Dropout(p=0.0, inplace=False)
                  (2): Linear(in_features=5120, out_features=1280, bias=True)
                )
              )
            )
          )
          (proj_out): Linear(in_features=1280, out_features=1280, bias=True)
        )
      )
      (adapter_down): ModuleList(
        (0): down_channel(
          (conv): Conv2d(1280, 160, kernel_size=(1, 1), stride=(1, 1))
          (norm): GroupNorm(4, 160, eps=1e-06, affine=True)
        )
        (1): down_channel(
          (conv): Conv2d(1280, 160, kernel_size=(1, 1), stride=(1, 1))
          (norm): GroupNorm(4, 160, eps=1e-06, affine=True)
        )
        (2): down_channel(
          (conv): Conv2d(1280, 160, kernel_size=(1, 1), stride=(1, 1))
          (norm): GroupNorm(4, 160, eps=1e-06, affine=True)
        )
      )
      (spatial_adapters_resnets): ModuleList(
        (0): ResnetBlock2D(
          (norm1): GroupNorm(4, 320, eps=1e-05, affine=True)
          (conv1): Conv2d(320, 160, kernel_size=(3, 3), stride=(1, 1), padding=(1, 1))
          (time_emb_proj): Linear(in_features=1280, out_features=160, bias=True)
          (norm2): GroupNorm(4, 160, eps=1e-05, affine=True)
          (dropout): Dropout(p=0.0, inplace=False)
          (conv2): Conv2d(160, 160, kernel_size=(3, 3), stride=(1, 1), padding=(1, 1))
          (nonlinearity): SiLU()
          (conv_shortcut): Conv2d(320, 160, kernel_size=(1, 1), stride=(1, 1))
        )
        (1): ResnetBlock2D(
          (norm1): GroupNorm(4, 320, eps=1e-05, affine=True)
          (conv1): Conv2d(320, 160, kernel_size=(3, 3), stride=(1, 1), padding=(1, 1))
          (time_emb_proj): Linear(in_features=1280, out_features=160, bias=True)
          (norm2): GroupNorm(4, 160, eps=1e-05, affine=True)
          (dropout): Dropout(p=0.0, inplace=False)
          (conv2): Conv2d(160, 160, kernel_size=(3, 3), stride=(1, 1), padding=(1, 1))
          (nonlinearity): SiLU()
          (conv_shortcut): Conv2d(320, 160, kernel_size=(1, 1), stride=(1, 1))
        )
        (2): ResnetBlock2D(
          (norm1): GroupNorm(4, 240, eps=1e-05, affine=True)
          (conv1): Conv2d(240, 160, kernel_size=(3, 3), stride=(1, 1), padding=(1, 1))
          (time_emb_proj): Linear(in_features=1280, out_features=160, bias=True)
          (norm2): GroupNorm(4, 160, eps=1e-05, affine=True)
          (dropout): Dropout(p=0.0, inplace=False)
          (conv2): Conv2d(160, 160, kernel_size=(3, 3), stride=(1, 1), padding=(1, 1))
          (nonlinearity): SiLU()
          (conv_shortcut): Conv2d(240, 160, kernel_size=(1, 1), stride=(1, 1))
        )
      )
      (spatial_adapters_attentions): ModuleList(
        (0): Transformer2DModel(
          (norm): GroupNorm(4, 160, eps=1e-06, affine=True)
          (proj_in): Linear(in_features=160, out_features=160, bias=True)
          (transformer_blocks): ModuleList(
            (0): BasicTransformerBlock(
              (norm1): LayerNorm((160,), eps=1e-05, elementwise_affine=True)
              (attn1): Attention(
                (to_q): Linear(in_features=160, out_features=160, bias=False)
                (to_k): Linear(in_features=160, out_features=160, bias=False)
                (to_v): Linear(in_features=160, out_features=160, bias=False)
                (to_out): ModuleList(
                  (0): Linear(in_features=160, out_features=160, bias=True)
                  (1): Dropout(p=0.0, inplace=False)
                )
              )
              (norm2): LayerNorm((160,), eps=1e-05, elementwise_affine=True)
              (attn2): Attention(
                (to_q): Linear(in_features=160, out_features=160, bias=False)
                (to_k): Linear(in_features=1024, out_features=160, bias=False)
                (to_v): Linear(in_features=1024, out_features=160, bias=False)
                (to_out): ModuleList(
                  (0): Linear(in_features=160, out_features=160, bias=True)
                  (1): Dropout(p=0.0, inplace=False)
                )
              )
              (norm3): LayerNorm((160,), eps=1e-05, elementwise_affine=True)
              (ff): FeedForward(
                (net): ModuleList(
                  (0): GEGLU(
                    (proj): Linear(in_features=160, out_features=1280, bias=True)
                  )
                  (1): Dropout(p=0.0, inplace=False)
                  (2): Linear(in_features=640, out_features=160, bias=True)
                )
              )
            )
          )
          (proj_out): Linear(in_features=160, out_features=160, bias=True)
        )
        (1): Transformer2DModel(
          (norm): GroupNorm(4, 160, eps=1e-06, affine=True)
          (proj_in): Linear(in_features=160, out_features=160, bias=True)
          (transformer_blocks): ModuleList(
            (0): BasicTransformerBlock(
              (norm1): LayerNorm((160,), eps=1e-05, elementwise_affine=True)
              (attn1): Attention(
                (to_q): Linear(in_features=160, out_features=160, bias=False)
                (to_k): Linear(in_features=160, out_features=160, bias=False)
                (to_v): Linear(in_features=160, out_features=160, bias=False)
                (to_out): ModuleList(
                  (0): Linear(in_features=160, out_features=160, bias=True)
                  (1): Dropout(p=0.0, inplace=False)
                )
              )
              (norm2): LayerNorm((160,), eps=1e-05, elementwise_affine=True)
              (attn2): Attention(
                (to_q): Linear(in_features=160, out_features=160, bias=False)
                (to_k): Linear(in_features=1024, out_features=160, bias=False)
                (to_v): Linear(in_features=1024, out_features=160, bias=False)
                (to_out): ModuleList(
                  (0): Linear(in_features=160, out_features=160, bias=True)
                  (1): Dropout(p=0.0, inplace=False)
                )
              )
              (norm3): LayerNorm((160,), eps=1e-05, elementwise_affine=True)
              (ff): FeedForward(
                (net): ModuleList(
                  (0): GEGLU(
                    (proj): Linear(in_features=160, out_features=1280, bias=True)
                  )
                  (1): Dropout(p=0.0, inplace=False)
                  (2): Linear(in_features=640, out_features=160, bias=True)
                )
              )
            )
          )
          (proj_out): Linear(in_features=160, out_features=160, bias=True)
        )
        (2): Transformer2DModel(
          (norm): GroupNorm(4, 160, eps=1e-06, affine=True)
          (proj_in): Linear(in_features=160, out_features=160, bias=True)
          (transformer_blocks): ModuleList(
            (0): BasicTransformerBlock(
              (norm1): LayerNorm((160,), eps=1e-05, elementwise_affine=True)
              (attn1): Attention(
                (to_q): Linear(in_features=160, out_features=160, bias=False)
                (to_k): Linear(in_features=160, out_features=160, bias=False)
                (to_v): Linear(in_features=160, out_features=160, bias=False)
                (to_out): ModuleList(
                  (0): Linear(in_features=160, out_features=160, bias=True)
                  (1): Dropout(p=0.0, inplace=False)
                )
              )
              (norm2): LayerNorm((160,), eps=1e-05, elementwise_affine=True)
              (attn2): Attention(
                (to_q): Linear(in_features=160, out_features=160, bias=False)
                (to_k): Linear(in_features=1024, out_features=160, bias=False)
                (to_v): Linear(in_features=1024, out_features=160, bias=False)
                (to_out): ModuleList(
                  (0): Linear(in_features=160, out_features=160, bias=True)
                  (1): Dropout(p=0.0, inplace=False)
                )
              )
              (norm3): LayerNorm((160,), eps=1e-05, elementwise_affine=True)
              (ff): FeedForward(
                (net): ModuleList(
                  (0): GEGLU(
                    (proj): Linear(in_features=160, out_features=1280, bias=True)
                  )
                  (1): Dropout(p=0.0, inplace=False)
                  (2): Linear(in_features=640, out_features=160, bias=True)
                )
              )
            )
          )
          (proj_out): Linear(in_features=160, out_features=160, bias=True)
        )
      )
      (upsamplers): ModuleList(
        (0): Upsample2D(
          (conv): Conv2d(1280, 1280, kernel_size=(3, 3), stride=(1, 1), padding=(1, 1))
        )
      )
      (adapter_upsamplers): ModuleList(
        (0): Upsample2D(
          (conv): Conv2d(160, 160, kernel_size=(3, 3), stride=(1, 1), padding=(1, 1))
        )
      )
    )
    (2): CrossAttnUpBlock3D(
      (resnets): ModuleList(
        (0): ResnetBlock2D(
          (norm1): GroupNorm(32, 1920, eps=1e-05, affine=True)
          (conv1): Conv2d(1920, 640, kernel_size=(3, 3), stride=(1, 1), padding=(1, 1))
          (time_emb_proj): Linear(in_features=1280, out_features=640, bias=True)
          (norm2): GroupNorm(32, 640, eps=1e-05, affine=True)
          (dropout): Dropout(p=0.0, inplace=False)
          (conv2): Conv2d(640, 640, kernel_size=(3, 3), stride=(1, 1), padding=(1, 1))
          (nonlinearity): SiLU()
          (conv_shortcut): Conv2d(1920, 640, kernel_size=(1, 1), stride=(1, 1))
        )
        (1): ResnetBlock2D(
          (norm1): GroupNorm(32, 1280, eps=1e-05, affine=True)
          (conv1): Conv2d(1280, 640, kernel_size=(3, 3), stride=(1, 1), padding=(1, 1))
          (time_emb_proj): Linear(in_features=1280, out_features=640, bias=True)
          (norm2): GroupNorm(32, 640, eps=1e-05, affine=True)
          (dropout): Dropout(p=0.0, inplace=False)
          (conv2): Conv2d(640, 640, kernel_size=(3, 3), stride=(1, 1), padding=(1, 1))
          (nonlinearity): SiLU()
          (conv_shortcut): Conv2d(1280, 640, kernel_size=(1, 1), stride=(1, 1))
        )
        (2): ResnetBlock2D(
          (norm1): GroupNorm(32, 960, eps=1e-05, affine=True)
          (conv1): Conv2d(960, 640, kernel_size=(3, 3), stride=(1, 1), padding=(1, 1))
          (time_emb_proj): Linear(in_features=1280, out_features=640, bias=True)
          (norm2): GroupNorm(32, 640, eps=1e-05, affine=True)
          (dropout): Dropout(p=0.0, inplace=False)
          (conv2): Conv2d(640, 640, kernel_size=(3, 3), stride=(1, 1), padding=(1, 1))
          (nonlinearity): SiLU()
          (conv_shortcut): Conv2d(960, 640, kernel_size=(1, 1), stride=(1, 1))
        )
      )
      (temp_convs): ModuleList(
        (0): TemporalConvLayer(
          (proj_conv): Sequential(
            (0): GroupNorm(32, 1920, eps=1e-05, affine=True)
            (1): SiLU()
            (2): Conv3d(1920, 640, kernel_size=(3, 1, 1), stride=(1, 1, 1), padding=(1, 0, 0))
          )
          (conv1): Sequential(
            (0): GroupNorm(32, 640, eps=1e-05, affine=True)
            (1): SiLU()
            (2): Conv3d(640, 640, kernel_size=(3, 1, 1), stride=(1, 1, 1), padding=(1, 0, 0))
          )
          (conv2): Sequential(
            (0): GroupNorm(32, 640, eps=1e-05, affine=True)
            (1): SiLU()
            (2): Dropout(p=0.1, inplace=False)
            (3): Conv3d(640, 640, kernel_size=(3, 1, 1), stride=(1, 1, 1), padding=(1, 0, 0))
          )
          (conv3): Sequential(
            (0): GroupNorm(32, 640, eps=1e-05, affine=True)
            (1): SiLU()
            (2): Dropout(p=0.1, inplace=False)
            (3): Conv3d(640, 640, kernel_size=(3, 1, 1), stride=(1, 1, 1), padding=(1, 0, 0))
          )
          (conv4): Sequential(
            (0): GroupNorm(32, 640, eps=1e-05, affine=True)
            (1): SiLU()
            (2): Dropout(p=0.1, inplace=False)
            (3): Conv3d(640, 640, kernel_size=(3, 1, 1), stride=(1, 1, 1), padding=(1, 0, 0))
          )
        )
        (1): TemporalConvLayer(
          (proj_conv): Sequential(
            (0): GroupNorm(32, 1280, eps=1e-05, affine=True)
            (1): SiLU()
            (2): Conv3d(1280, 640, kernel_size=(3, 1, 1), stride=(1, 1, 1), padding=(1, 0, 0))
          )
          (conv1): Sequential(
            (0): GroupNorm(32, 640, eps=1e-05, affine=True)
            (1): SiLU()
            (2): Conv3d(640, 640, kernel_size=(3, 1, 1), stride=(1, 1, 1), padding=(1, 0, 0))
          )
          (conv2): Sequential(
            (0): GroupNorm(32, 640, eps=1e-05, affine=True)
            (1): SiLU()
            (2): Dropout(p=0.1, inplace=False)
            (3): Conv3d(640, 640, kernel_size=(3, 1, 1), stride=(1, 1, 1), padding=(1, 0, 0))
          )
          (conv3): Sequential(
            (0): GroupNorm(32, 640, eps=1e-05, affine=True)
            (1): SiLU()
            (2): Dropout(p=0.1, inplace=False)
            (3): Conv3d(640, 640, kernel_size=(3, 1, 1), stride=(1, 1, 1), padding=(1, 0, 0))
          )
          (conv4): Sequential(
            (0): GroupNorm(32, 640, eps=1e-05, affine=True)
            (1): SiLU()
            (2): Dropout(p=0.1, inplace=False)
            (3): Conv3d(640, 640, kernel_size=(3, 1, 1), stride=(1, 1, 1), padding=(1, 0, 0))
          )
        )
        (2): TemporalConvLayer(
          (proj_conv): Sequential(
            (0): GroupNorm(32, 960, eps=1e-05, affine=True)
            (1): SiLU()
            (2): Conv3d(960, 640, kernel_size=(3, 1, 1), stride=(1, 1, 1), padding=(1, 0, 0))
          )
          (conv1): Sequential(
            (0): GroupNorm(32, 640, eps=1e-05, affine=True)
            (1): SiLU()
            (2): Conv3d(640, 640, kernel_size=(3, 1, 1), stride=(1, 1, 1), padding=(1, 0, 0))
          )
          (conv2): Sequential(
            (0): GroupNorm(32, 640, eps=1e-05, affine=True)
            (1): SiLU()
            (2): Dropout(p=0.1, inplace=False)
            (3): Conv3d(640, 640, kernel_size=(3, 1, 1), stride=(1, 1, 1), padding=(1, 0, 0))
          )
          (conv3): Sequential(
            (0): GroupNorm(32, 640, eps=1e-05, affine=True)
            (1): SiLU()
            (2): Dropout(p=0.1, inplace=False)
            (3): Conv3d(640, 640, kernel_size=(3, 1, 1), stride=(1, 1, 1), padding=(1, 0, 0))
          )
          (conv4): Sequential(
            (0): GroupNorm(32, 640, eps=1e-05, affine=True)
            (1): SiLU()
            (2): Dropout(p=0.1, inplace=False)
            (3): Conv3d(640, 640, kernel_size=(3, 1, 1), stride=(1, 1, 1), padding=(1, 0, 0))
          )
        )
      )
      (attentions): ModuleList(
        (0): Transformer2DModel(
          (norm): GroupNorm(32, 640, eps=1e-06, affine=True)
          (proj_in): Linear(in_features=640, out_features=640, bias=True)
          (transformer_blocks): ModuleList(
            (0): BasicTransformerBlock(
              (norm1): LayerNorm((640,), eps=1e-05, elementwise_affine=True)
              (attn1): Attention(
                (to_q): Linear(in_features=640, out_features=640, bias=False)
                (to_k): Linear(in_features=640, out_features=640, bias=False)
                (to_v): Linear(in_features=640, out_features=640, bias=False)
                (to_out): ModuleList(
                  (0): Linear(in_features=640, out_features=640, bias=True)
                  (1): Dropout(p=0.0, inplace=False)
                )
              )
              (norm2): LayerNorm((640,), eps=1e-05, elementwise_affine=True)
              (attn2): Attention(
                (to_q): Linear(in_features=640, out_features=640, bias=False)
                (to_k): Linear(in_features=1024, out_features=640, bias=False)
                (to_v): Linear(in_features=1024, out_features=640, bias=False)
                (to_out): ModuleList(
                  (0): Linear(in_features=640, out_features=640, bias=True)
                  (1): Dropout(p=0.0, inplace=False)
                )
              )
              (norm3): LayerNorm((640,), eps=1e-05, elementwise_affine=True)
              (ff): FeedForward(
                (net): ModuleList(
                  (0): GEGLU(
                    (proj): Linear(in_features=640, out_features=5120, bias=True)
                  )
                  (1): Dropout(p=0.0, inplace=False)
                  (2): Linear(in_features=2560, out_features=640, bias=True)
                )
              )
            )
          )
          (proj_out): Linear(in_features=640, out_features=640, bias=True)
        )
        (1): Transformer2DModel(
          (norm): GroupNorm(32, 640, eps=1e-06, affine=True)
          (proj_in): Linear(in_features=640, out_features=640, bias=True)
          (transformer_blocks): ModuleList(
            (0): BasicTransformerBlock(
              (norm1): LayerNorm((640,), eps=1e-05, elementwise_affine=True)
              (attn1): Attention(
                (to_q): Linear(in_features=640, out_features=640, bias=False)
                (to_k): Linear(in_features=640, out_features=640, bias=False)
                (to_v): Linear(in_features=640, out_features=640, bias=False)
                (to_out): ModuleList(
                  (0): Linear(in_features=640, out_features=640, bias=True)
                  (1): Dropout(p=0.0, inplace=False)
                )
              )
              (norm2): LayerNorm((640,), eps=1e-05, elementwise_affine=True)
              (attn2): Attention(
                (to_q): Linear(in_features=640, out_features=640, bias=False)
                (to_k): Linear(in_features=1024, out_features=640, bias=False)
                (to_v): Linear(in_features=1024, out_features=640, bias=False)
                (to_out): ModuleList(
                  (0): Linear(in_features=640, out_features=640, bias=True)
                  (1): Dropout(p=0.0, inplace=False)
                )
              )
              (norm3): LayerNorm((640,), eps=1e-05, elementwise_affine=True)
              (ff): FeedForward(
                (net): ModuleList(
                  (0): GEGLU(
                    (proj): Linear(in_features=640, out_features=5120, bias=True)
                  )
                  (1): Dropout(p=0.0, inplace=False)
                  (2): Linear(in_features=2560, out_features=640, bias=True)
                )
              )
            )
          )
          (proj_out): Linear(in_features=640, out_features=640, bias=True)
        )
        (2): Transformer2DModel(
          (norm): GroupNorm(32, 640, eps=1e-06, affine=True)
          (proj_in): Linear(in_features=640, out_features=640, bias=True)
          (transformer_blocks): ModuleList(
            (0): BasicTransformerBlock(
              (norm1): LayerNorm((640,), eps=1e-05, elementwise_affine=True)
              (attn1): Attention(
                (to_q): Linear(in_features=640, out_features=640, bias=False)
                (to_k): Linear(in_features=640, out_features=640, bias=False)
                (to_v): Linear(in_features=640, out_features=640, bias=False)
                (to_out): ModuleList(
                  (0): Linear(in_features=640, out_features=640, bias=True)
                  (1): Dropout(p=0.0, inplace=False)
                )
              )
              (norm2): LayerNorm((640,), eps=1e-05, elementwise_affine=True)
              (attn2): Attention(
                (to_q): Linear(in_features=640, out_features=640, bias=False)
                (to_k): Linear(in_features=1024, out_features=640, bias=False)
                (to_v): Linear(in_features=1024, out_features=640, bias=False)
                (to_out): ModuleList(
                  (0): Linear(in_features=640, out_features=640, bias=True)
                  (1): Dropout(p=0.0, inplace=False)
                )
              )
              (norm3): LayerNorm((640,), eps=1e-05, elementwise_affine=True)
              (ff): FeedForward(
                (net): ModuleList(
                  (0): GEGLU(
                    (proj): Linear(in_features=640, out_features=5120, bias=True)
                  )
                  (1): Dropout(p=0.0, inplace=False)
                  (2): Linear(in_features=2560, out_features=640, bias=True)
                )
              )
            )
          )
          (proj_out): Linear(in_features=640, out_features=640, bias=True)
        )
      )
      (temp_attentions): ModuleList(
        (0): TransformerTemporalModel(
          (norm): GroupNorm(32, 640, eps=1e-06, affine=True)
          (proj_in): Linear(in_features=640, out_features=640, bias=True)
          (transformer_blocks): ModuleList(
            (0): BasicTransformerBlock(
              (norm1): LayerNorm((640,), eps=1e-05, elementwise_affine=True)
              (attn1): Attention(
                (to_q): Linear(in_features=640, out_features=640, bias=False)
                (to_k): Linear(in_features=640, out_features=640, bias=False)
                (to_v): Linear(in_features=640, out_features=640, bias=False)
                (to_out): ModuleList(
                  (0): Linear(in_features=640, out_features=640, bias=True)
                  (1): Dropout(p=0.0, inplace=False)
                )
              )
              (norm2): LayerNorm((640,), eps=1e-05, elementwise_affine=True)
              (attn2): Attention(
                (to_q): Linear(in_features=640, out_features=640, bias=False)
                (to_k): Linear(in_features=640, out_features=640, bias=False)
                (to_v): Linear(in_features=640, out_features=640, bias=False)
                (to_out): ModuleList(
                  (0): Linear(in_features=640, out_features=640, bias=True)
                  (1): Dropout(p=0.0, inplace=False)
                )
              )
              (norm3): LayerNorm((640,), eps=1e-05, elementwise_affine=True)
              (ff): FeedForward(
                (net): ModuleList(
                  (0): GEGLU(
                    (proj): Linear(in_features=640, out_features=5120, bias=True)
                  )
                  (1): Dropout(p=0.0, inplace=False)
                  (2): Linear(in_features=2560, out_features=640, bias=True)
                )
              )
            )
          )
          (proj_out): Linear(in_features=640, out_features=640, bias=True)
        )
        (1): TransformerTemporalModel(
          (norm): GroupNorm(32, 640, eps=1e-06, affine=True)
          (proj_in): Linear(in_features=640, out_features=640, bias=True)
          (transformer_blocks): ModuleList(
            (0): BasicTransformerBlock(
              (norm1): LayerNorm((640,), eps=1e-05, elementwise_affine=True)
              (attn1): Attention(
                (to_q): Linear(in_features=640, out_features=640, bias=False)
                (to_k): Linear(in_features=640, out_features=640, bias=False)
                (to_v): Linear(in_features=640, out_features=640, bias=False)
                (to_out): ModuleList(
                  (0): Linear(in_features=640, out_features=640, bias=True)
                  (1): Dropout(p=0.0, inplace=False)
                )
              )
              (norm2): LayerNorm((640,), eps=1e-05, elementwise_affine=True)
              (attn2): Attention(
                (to_q): Linear(in_features=640, out_features=640, bias=False)
                (to_k): Linear(in_features=640, out_features=640, bias=False)
                (to_v): Linear(in_features=640, out_features=640, bias=False)
                (to_out): ModuleList(
                  (0): Linear(in_features=640, out_features=640, bias=True)
                  (1): Dropout(p=0.0, inplace=False)
                )
              )
              (norm3): LayerNorm((640,), eps=1e-05, elementwise_affine=True)
              (ff): FeedForward(
                (net): ModuleList(
                  (0): GEGLU(
                    (proj): Linear(in_features=640, out_features=5120, bias=True)
                  )
                  (1): Dropout(p=0.0, inplace=False)
                  (2): Linear(in_features=2560, out_features=640, bias=True)
                )
              )
            )
          )
          (proj_out): Linear(in_features=640, out_features=640, bias=True)
        )
        (2): TransformerTemporalModel(
          (norm): GroupNorm(32, 640, eps=1e-06, affine=True)
          (proj_in): Linear(in_features=640, out_features=640, bias=True)
          (transformer_blocks): ModuleList(
            (0): BasicTransformerBlock(
              (norm1): LayerNorm((640,), eps=1e-05, elementwise_affine=True)
              (attn1): Attention(
                (to_q): Linear(in_features=640, out_features=640, bias=False)
                (to_k): Linear(in_features=640, out_features=640, bias=False)
                (to_v): Linear(in_features=640, out_features=640, bias=False)
                (to_out): ModuleList(
                  (0): Linear(in_features=640, out_features=640, bias=True)
                  (1): Dropout(p=0.0, inplace=False)
                )
              )
              (norm2): LayerNorm((640,), eps=1e-05, elementwise_affine=True)
              (attn2): Attention(
                (to_q): Linear(in_features=640, out_features=640, bias=False)
                (to_k): Linear(in_features=640, out_features=640, bias=False)
                (to_v): Linear(in_features=640, out_features=640, bias=False)
                (to_out): ModuleList(
                  (0): Linear(in_features=640, out_features=640, bias=True)
                  (1): Dropout(p=0.0, inplace=False)
                )
              )
              (norm3): LayerNorm((640,), eps=1e-05, elementwise_affine=True)
              (ff): FeedForward(
                (net): ModuleList(
                  (0): GEGLU(
                    (proj): Linear(in_features=640, out_features=5120, bias=True)
                  )
                  (1): Dropout(p=0.0, inplace=False)
                  (2): Linear(in_features=2560, out_features=640, bias=True)
                )
              )
            )
          )
          (proj_out): Linear(in_features=640, out_features=640, bias=True)
        )
      )
      (adapter_down): ModuleList(
        (0): down_channel(
          (conv): Conv2d(640, 80, kernel_size=(1, 1), stride=(1, 1))
          (norm): GroupNorm(4, 80, eps=1e-06, affine=True)
        )
        (1): down_channel(
          (conv): Conv2d(640, 80, kernel_size=(1, 1), stride=(1, 1))
          (norm): GroupNorm(4, 80, eps=1e-06, affine=True)
        )
        (2): down_channel(
          (conv): Conv2d(640, 80, kernel_size=(1, 1), stride=(1, 1))
          (norm): GroupNorm(4, 80, eps=1e-06, affine=True)
        )
      )
      (spatial_adapters_resnets): ModuleList(
        (0): ResnetBlock2D(
          (norm1): GroupNorm(4, 240, eps=1e-05, affine=True)
          (conv1): Conv2d(240, 80, kernel_size=(3, 3), stride=(1, 1), padding=(1, 1))
          (time_emb_proj): Linear(in_features=1280, out_features=80, bias=True)
          (norm2): GroupNorm(4, 80, eps=1e-05, affine=True)
          (dropout): Dropout(p=0.0, inplace=False)
          (conv2): Conv2d(80, 80, kernel_size=(3, 3), stride=(1, 1), padding=(1, 1))
          (nonlinearity): SiLU()
          (conv_shortcut): Conv2d(240, 80, kernel_size=(1, 1), stride=(1, 1))
        )
        (1): ResnetBlock2D(
          (norm1): GroupNorm(4, 160, eps=1e-05, affine=True)
          (conv1): Conv2d(160, 80, kernel_size=(3, 3), stride=(1, 1), padding=(1, 1))
          (time_emb_proj): Linear(in_features=1280, out_features=80, bias=True)
          (norm2): GroupNorm(4, 80, eps=1e-05, affine=True)
          (dropout): Dropout(p=0.0, inplace=False)
          (conv2): Conv2d(80, 80, kernel_size=(3, 3), stride=(1, 1), padding=(1, 1))
          (nonlinearity): SiLU()
          (conv_shortcut): Conv2d(160, 80, kernel_size=(1, 1), stride=(1, 1))
        )
        (2): ResnetBlock2D(
          (norm1): GroupNorm(4, 120, eps=1e-05, affine=True)
          (conv1): Conv2d(120, 80, kernel_size=(3, 3), stride=(1, 1), padding=(1, 1))
          (time_emb_proj): Linear(in_features=1280, out_features=80, bias=True)
          (norm2): GroupNorm(4, 80, eps=1e-05, affine=True)
          (dropout): Dropout(p=0.0, inplace=False)
          (conv2): Conv2d(80, 80, kernel_size=(3, 3), stride=(1, 1), padding=(1, 1))
          (nonlinearity): SiLU()
          (conv_shortcut): Conv2d(120, 80, kernel_size=(1, 1), stride=(1, 1))
        )
      )
      (spatial_adapters_attentions): ModuleList(
        (0): Transformer2DModel(
          (norm): GroupNorm(4, 80, eps=1e-06, affine=True)
          (proj_in): Linear(in_features=80, out_features=80, bias=True)
          (transformer_blocks): ModuleList(
            (0): BasicTransformerBlock(
              (norm1): LayerNorm((80,), eps=1e-05, elementwise_affine=True)
              (attn1): Attention(
                (to_q): Linear(in_features=80, out_features=80, bias=False)
                (to_k): Linear(in_features=80, out_features=80, bias=False)
                (to_v): Linear(in_features=80, out_features=80, bias=False)
                (to_out): ModuleList(
                  (0): Linear(in_features=80, out_features=80, bias=True)
                  (1): Dropout(p=0.0, inplace=False)
                )
              )
              (norm2): LayerNorm((80,), eps=1e-05, elementwise_affine=True)
              (attn2): Attention(
                (to_q): Linear(in_features=80, out_features=80, bias=False)
                (to_k): Linear(in_features=1024, out_features=80, bias=False)
                (to_v): Linear(in_features=1024, out_features=80, bias=False)
                (to_out): ModuleList(
                  (0): Linear(in_features=80, out_features=80, bias=True)
                  (1): Dropout(p=0.0, inplace=False)
                )
              )
              (norm3): LayerNorm((80,), eps=1e-05, elementwise_affine=True)
              (ff): FeedForward(
                (net): ModuleList(
                  (0): GEGLU(
                    (proj): Linear(in_features=80, out_features=640, bias=True)
                  )
                  (1): Dropout(p=0.0, inplace=False)
                  (2): Linear(in_features=320, out_features=80, bias=True)
                )
              )
            )
          )
          (proj_out): Linear(in_features=80, out_features=80, bias=True)
        )
        (1): Transformer2DModel(
          (norm): GroupNorm(4, 80, eps=1e-06, affine=True)
          (proj_in): Linear(in_features=80, out_features=80, bias=True)
          (transformer_blocks): ModuleList(
            (0): BasicTransformerBlock(
              (norm1): LayerNorm((80,), eps=1e-05, elementwise_affine=True)
              (attn1): Attention(
                (to_q): Linear(in_features=80, out_features=80, bias=False)
                (to_k): Linear(in_features=80, out_features=80, bias=False)
                (to_v): Linear(in_features=80, out_features=80, bias=False)
                (to_out): ModuleList(
                  (0): Linear(in_features=80, out_features=80, bias=True)
                  (1): Dropout(p=0.0, inplace=False)
                )
              )
              (norm2): LayerNorm((80,), eps=1e-05, elementwise_affine=True)
              (attn2): Attention(
                (to_q): Linear(in_features=80, out_features=80, bias=False)
                (to_k): Linear(in_features=1024, out_features=80, bias=False)
                (to_v): Linear(in_features=1024, out_features=80, bias=False)
                (to_out): ModuleList(
                  (0): Linear(in_features=80, out_features=80, bias=True)
                  (1): Dropout(p=0.0, inplace=False)
                )
              )
              (norm3): LayerNorm((80,), eps=1e-05, elementwise_affine=True)
              (ff): FeedForward(
                (net): ModuleList(
                  (0): GEGLU(
                    (proj): Linear(in_features=80, out_features=640, bias=True)
                  )
                  (1): Dropout(p=0.0, inplace=False)
                  (2): Linear(in_features=320, out_features=80, bias=True)
                )
              )
            )
          )
          (proj_out): Linear(in_features=80, out_features=80, bias=True)
        )
        (2): Transformer2DModel(
          (norm): GroupNorm(4, 80, eps=1e-06, affine=True)
          (proj_in): Linear(in_features=80, out_features=80, bias=True)
          (transformer_blocks): ModuleList(
            (0): BasicTransformerBlock(
              (norm1): LayerNorm((80,), eps=1e-05, elementwise_affine=True)
              (attn1): Attention(
                (to_q): Linear(in_features=80, out_features=80, bias=False)
                (to_k): Linear(in_features=80, out_features=80, bias=False)
                (to_v): Linear(in_features=80, out_features=80, bias=False)
                (to_out): ModuleList(
                  (0): Linear(in_features=80, out_features=80, bias=True)
                  (1): Dropout(p=0.0, inplace=False)
                )
              )
              (norm2): LayerNorm((80,), eps=1e-05, elementwise_affine=True)
              (attn2): Attention(
                (to_q): Linear(in_features=80, out_features=80, bias=False)
                (to_k): Linear(in_features=1024, out_features=80, bias=False)
                (to_v): Linear(in_features=1024, out_features=80, bias=False)
                (to_out): ModuleList(
                  (0): Linear(in_features=80, out_features=80, bias=True)
                  (1): Dropout(p=0.0, inplace=False)
                )
              )
              (norm3): LayerNorm((80,), eps=1e-05, elementwise_affine=True)
              (ff): FeedForward(
                (net): ModuleList(
                  (0): GEGLU(
                    (proj): Linear(in_features=80, out_features=640, bias=True)
                  )
                  (1): Dropout(p=0.0, inplace=False)
                  (2): Linear(in_features=320, out_features=80, bias=True)
                )
              )
            )
          )
          (proj_out): Linear(in_features=80, out_features=80, bias=True)
        )
      )
      (upsamplers): ModuleList(
        (0): Upsample2D(
          (conv): Conv2d(640, 640, kernel_size=(3, 3), stride=(1, 1), padding=(1, 1))
        )
      )
      (adapter_upsamplers): ModuleList(
        (0): Upsample2D(
          (conv): Conv2d(80, 80, kernel_size=(3, 3), stride=(1, 1), padding=(1, 1))
        )
      )
    )
    (3): CrossAttnUpBlock3D(
      (resnets): ModuleList(
        (0): ResnetBlock2D(
          (norm1): GroupNorm(32, 960, eps=1e-05, affine=True)
          (conv1): Conv2d(960, 320, kernel_size=(3, 3), stride=(1, 1), padding=(1, 1))
          (time_emb_proj): Linear(in_features=1280, out_features=320, bias=True)
          (norm2): GroupNorm(32, 320, eps=1e-05, affine=True)
          (dropout): Dropout(p=0.0, inplace=False)
          (conv2): Conv2d(320, 320, kernel_size=(3, 3), stride=(1, 1), padding=(1, 1))
          (nonlinearity): SiLU()
          (conv_shortcut): Conv2d(960, 320, kernel_size=(1, 1), stride=(1, 1))
        )
        (1): ResnetBlock2D(
          (norm1): GroupNorm(32, 640, eps=1e-05, affine=True)
          (conv1): Conv2d(640, 320, kernel_size=(3, 3), stride=(1, 1), padding=(1, 1))
          (time_emb_proj): Linear(in_features=1280, out_features=320, bias=True)
          (norm2): GroupNorm(32, 320, eps=1e-05, affine=True)
          (dropout): Dropout(p=0.0, inplace=False)
          (conv2): Conv2d(320, 320, kernel_size=(3, 3), stride=(1, 1), padding=(1, 1))
          (nonlinearity): SiLU()
          (conv_shortcut): Conv2d(640, 320, kernel_size=(1, 1), stride=(1, 1))
        )
        (2): ResnetBlock2D(
          (norm1): GroupNorm(32, 640, eps=1e-05, affine=True)
          (conv1): Conv2d(640, 320, kernel_size=(3, 3), stride=(1, 1), padding=(1, 1))
          (time_emb_proj): Linear(in_features=1280, out_features=320, bias=True)
          (norm2): GroupNorm(32, 320, eps=1e-05, affine=True)
          (dropout): Dropout(p=0.0, inplace=False)
          (conv2): Conv2d(320, 320, kernel_size=(3, 3), stride=(1, 1), padding=(1, 1))
          (nonlinearity): SiLU()
          (conv_shortcut): Conv2d(640, 320, kernel_size=(1, 1), stride=(1, 1))
        )
      )
      (temp_convs): ModuleList(
        (0): TemporalConvLayer(
          (proj_conv): Sequential(
            (0): GroupNorm(32, 960, eps=1e-05, affine=True)
            (1): SiLU()
            (2): Conv3d(960, 320, kernel_size=(3, 1, 1), stride=(1, 1, 1), padding=(1, 0, 0))
          )
          (conv1): Sequential(
            (0): GroupNorm(32, 320, eps=1e-05, affine=True)
            (1): SiLU()
            (2): Conv3d(320, 320, kernel_size=(3, 1, 1), stride=(1, 1, 1), padding=(1, 0, 0))
          )
          (conv2): Sequential(
            (0): GroupNorm(32, 320, eps=1e-05, affine=True)
            (1): SiLU()
            (2): Dropout(p=0.1, inplace=False)
            (3): Conv3d(320, 320, kernel_size=(3, 1, 1), stride=(1, 1, 1), padding=(1, 0, 0))
          )
          (conv3): Sequential(
            (0): GroupNorm(32, 320, eps=1e-05, affine=True)
            (1): SiLU()
            (2): Dropout(p=0.1, inplace=False)
            (3): Conv3d(320, 320, kernel_size=(3, 1, 1), stride=(1, 1, 1), padding=(1, 0, 0))
          )
          (conv4): Sequential(
            (0): GroupNorm(32, 320, eps=1e-05, affine=True)
            (1): SiLU()
            (2): Dropout(p=0.1, inplace=False)
            (3): Conv3d(320, 320, kernel_size=(3, 1, 1), stride=(1, 1, 1), padding=(1, 0, 0))
          )
        )
        (1): TemporalConvLayer(
          (proj_conv): Sequential(
            (0): GroupNorm(32, 640, eps=1e-05, affine=True)
            (1): SiLU()
            (2): Conv3d(640, 320, kernel_size=(3, 1, 1), stride=(1, 1, 1), padding=(1, 0, 0))
          )
          (conv1): Sequential(
            (0): GroupNorm(32, 320, eps=1e-05, affine=True)
            (1): SiLU()
            (2): Conv3d(320, 320, kernel_size=(3, 1, 1), stride=(1, 1, 1), padding=(1, 0, 0))
          )
          (conv2): Sequential(
            (0): GroupNorm(32, 320, eps=1e-05, affine=True)
            (1): SiLU()
            (2): Dropout(p=0.1, inplace=False)
            (3): Conv3d(320, 320, kernel_size=(3, 1, 1), stride=(1, 1, 1), padding=(1, 0, 0))
          )
          (conv3): Sequential(
            (0): GroupNorm(32, 320, eps=1e-05, affine=True)
            (1): SiLU()
            (2): Dropout(p=0.1, inplace=False)
            (3): Conv3d(320, 320, kernel_size=(3, 1, 1), stride=(1, 1, 1), padding=(1, 0, 0))
          )
          (conv4): Sequential(
            (0): GroupNorm(32, 320, eps=1e-05, affine=True)
            (1): SiLU()
            (2): Dropout(p=0.1, inplace=False)
            (3): Conv3d(320, 320, kernel_size=(3, 1, 1), stride=(1, 1, 1), padding=(1, 0, 0))
          )
        )
        (2): TemporalConvLayer(
          (proj_conv): Sequential(
            (0): GroupNorm(32, 640, eps=1e-05, affine=True)
            (1): SiLU()
            (2): Conv3d(640, 320, kernel_size=(3, 1, 1), stride=(1, 1, 1), padding=(1, 0, 0))
          )
          (conv1): Sequential(
            (0): GroupNorm(32, 320, eps=1e-05, affine=True)
            (1): SiLU()
            (2): Conv3d(320, 320, kernel_size=(3, 1, 1), stride=(1, 1, 1), padding=(1, 0, 0))
          )
          (conv2): Sequential(
            (0): GroupNorm(32, 320, eps=1e-05, affine=True)
            (1): SiLU()
            (2): Dropout(p=0.1, inplace=False)
            (3): Conv3d(320, 320, kernel_size=(3, 1, 1), stride=(1, 1, 1), padding=(1, 0, 0))
          )
          (conv3): Sequential(
            (0): GroupNorm(32, 320, eps=1e-05, affine=True)
            (1): SiLU()
            (2): Dropout(p=0.1, inplace=False)
            (3): Conv3d(320, 320, kernel_size=(3, 1, 1), stride=(1, 1, 1), padding=(1, 0, 0))
          )
          (conv4): Sequential(
            (0): GroupNorm(32, 320, eps=1e-05, affine=True)
            (1): SiLU()
            (2): Dropout(p=0.1, inplace=False)
            (3): Conv3d(320, 320, kernel_size=(3, 1, 1), stride=(1, 1, 1), padding=(1, 0, 0))
          )
        )
      )
      (attentions): ModuleList(
        (0): Transformer2DModel(
          (norm): GroupNorm(32, 320, eps=1e-06, affine=True)
          (proj_in): Linear(in_features=320, out_features=320, bias=True)
          (transformer_blocks): ModuleList(
            (0): BasicTransformerBlock(
              (norm1): LayerNorm((320,), eps=1e-05, elementwise_affine=True)
              (attn1): Attention(
                (to_q): Linear(in_features=320, out_features=320, bias=False)
                (to_k): Linear(in_features=320, out_features=320, bias=False)
                (to_v): Linear(in_features=320, out_features=320, bias=False)
                (to_out): ModuleList(
                  (0): Linear(in_features=320, out_features=320, bias=True)
                  (1): Dropout(p=0.0, inplace=False)
                )
              )
              (norm2): LayerNorm((320,), eps=1e-05, elementwise_affine=True)
              (attn2): Attention(
                (to_q): Linear(in_features=320, out_features=320, bias=False)
                (to_k): Linear(in_features=1024, out_features=320, bias=False)
                (to_v): Linear(in_features=1024, out_features=320, bias=False)
                (to_out): ModuleList(
                  (0): Linear(in_features=320, out_features=320, bias=True)
                  (1): Dropout(p=0.0, inplace=False)
                )
              )
              (norm3): LayerNorm((320,), eps=1e-05, elementwise_affine=True)
              (ff): FeedForward(
                (net): ModuleList(
                  (0): GEGLU(
                    (proj): Linear(in_features=320, out_features=2560, bias=True)
                  )
                  (1): Dropout(p=0.0, inplace=False)
                  (2): Linear(in_features=1280, out_features=320, bias=True)
                )
              )
            )
          )
          (proj_out): Linear(in_features=320, out_features=320, bias=True)
        )
        (1): Transformer2DModel(
          (norm): GroupNorm(32, 320, eps=1e-06, affine=True)
          (proj_in): Linear(in_features=320, out_features=320, bias=True)
          (transformer_blocks): ModuleList(
            (0): BasicTransformerBlock(
              (norm1): LayerNorm((320,), eps=1e-05, elementwise_affine=True)
              (attn1): Attention(
                (to_q): Linear(in_features=320, out_features=320, bias=False)
                (to_k): Linear(in_features=320, out_features=320, bias=False)
                (to_v): Linear(in_features=320, out_features=320, bias=False)
                (to_out): ModuleList(
                  (0): Linear(in_features=320, out_features=320, bias=True)
                  (1): Dropout(p=0.0, inplace=False)
                )
              )
              (norm2): LayerNorm((320,), eps=1e-05, elementwise_affine=True)
              (attn2): Attention(
                (to_q): Linear(in_features=320, out_features=320, bias=False)
                (to_k): Linear(in_features=1024, out_features=320, bias=False)
                (to_v): Linear(in_features=1024, out_features=320, bias=False)
                (to_out): ModuleList(
                  (0): Linear(in_features=320, out_features=320, bias=True)
                  (1): Dropout(p=0.0, inplace=False)
                )
              )
              (norm3): LayerNorm((320,), eps=1e-05, elementwise_affine=True)
              (ff): FeedForward(
                (net): ModuleList(
                  (0): GEGLU(
                    (proj): Linear(in_features=320, out_features=2560, bias=True)
                  )
                  (1): Dropout(p=0.0, inplace=False)
                  (2): Linear(in_features=1280, out_features=320, bias=True)
                )
              )
            )
          )
          (proj_out): Linear(in_features=320, out_features=320, bias=True)
        )
        (2): Transformer2DModel(
          (norm): GroupNorm(32, 320, eps=1e-06, affine=True)
          (proj_in): Linear(in_features=320, out_features=320, bias=True)
          (transformer_blocks): ModuleList(
            (0): BasicTransformerBlock(
              (norm1): LayerNorm((320,), eps=1e-05, elementwise_affine=True)
              (attn1): Attention(
                (to_q): Linear(in_features=320, out_features=320, bias=False)
                (to_k): Linear(in_features=320, out_features=320, bias=False)
                (to_v): Linear(in_features=320, out_features=320, bias=False)
                (to_out): ModuleList(
                  (0): Linear(in_features=320, out_features=320, bias=True)
                  (1): Dropout(p=0.0, inplace=False)
                )
              )
              (norm2): LayerNorm((320,), eps=1e-05, elementwise_affine=True)
              (attn2): Attention(
                (to_q): Linear(in_features=320, out_features=320, bias=False)
                (to_k): Linear(in_features=1024, out_features=320, bias=False)
                (to_v): Linear(in_features=1024, out_features=320, bias=False)
                (to_out): ModuleList(
                  (0): Linear(in_features=320, out_features=320, bias=True)
                  (1): Dropout(p=0.0, inplace=False)
                )
              )
              (norm3): LayerNorm((320,), eps=1e-05, elementwise_affine=True)
              (ff): FeedForward(
                (net): ModuleList(
                  (0): GEGLU(
                    (proj): Linear(in_features=320, out_features=2560, bias=True)
                  )
                  (1): Dropout(p=0.0, inplace=False)
                  (2): Linear(in_features=1280, out_features=320, bias=True)
                )
              )
            )
          )
          (proj_out): Linear(in_features=320, out_features=320, bias=True)
        )
      )
      (temp_attentions): ModuleList(
        (0): TransformerTemporalModel(
          (norm): GroupNorm(32, 320, eps=1e-06, affine=True)
          (proj_in): Linear(in_features=320, out_features=320, bias=True)
          (transformer_blocks): ModuleList(
            (0): BasicTransformerBlock(
              (norm1): LayerNorm((320,), eps=1e-05, elementwise_affine=True)
              (attn1): Attention(
                (to_q): Linear(in_features=320, out_features=320, bias=False)
                (to_k): Linear(in_features=320, out_features=320, bias=False)
                (to_v): Linear(in_features=320, out_features=320, bias=False)
                (to_out): ModuleList(
                  (0): Linear(in_features=320, out_features=320, bias=True)
                  (1): Dropout(p=0.0, inplace=False)
                )
              )
              (norm2): LayerNorm((320,), eps=1e-05, elementwise_affine=True)
              (attn2): Attention(
                (to_q): Linear(in_features=320, out_features=320, bias=False)
                (to_k): Linear(in_features=320, out_features=320, bias=False)
                (to_v): Linear(in_features=320, out_features=320, bias=False)
                (to_out): ModuleList(
                  (0): Linear(in_features=320, out_features=320, bias=True)
                  (1): Dropout(p=0.0, inplace=False)
                )
              )
              (norm3): LayerNorm((320,), eps=1e-05, elementwise_affine=True)
              (ff): FeedForward(
                (net): ModuleList(
                  (0): GEGLU(
                    (proj): Linear(in_features=320, out_features=2560, bias=True)
                  )
                  (1): Dropout(p=0.0, inplace=False)
                  (2): Linear(in_features=1280, out_features=320, bias=True)
                )
              )
            )
          )
          (proj_out): Linear(in_features=320, out_features=320, bias=True)
        )
        (1): TransformerTemporalModel(
          (norm): GroupNorm(32, 320, eps=1e-06, affine=True)
          (proj_in): Linear(in_features=320, out_features=320, bias=True)
          (transformer_blocks): ModuleList(
            (0): BasicTransformerBlock(
              (norm1): LayerNorm((320,), eps=1e-05, elementwise_affine=True)
              (attn1): Attention(
                (to_q): Linear(in_features=320, out_features=320, bias=False)
                (to_k): Linear(in_features=320, out_features=320, bias=False)
                (to_v): Linear(in_features=320, out_features=320, bias=False)
                (to_out): ModuleList(
                  (0): Linear(in_features=320, out_features=320, bias=True)
                  (1): Dropout(p=0.0, inplace=False)
                )
              )
              (norm2): LayerNorm((320,), eps=1e-05, elementwise_affine=True)
              (attn2): Attention(
                (to_q): Linear(in_features=320, out_features=320, bias=False)
                (to_k): Linear(in_features=320, out_features=320, bias=False)
                (to_v): Linear(in_features=320, out_features=320, bias=False)
                (to_out): ModuleList(
                  (0): Linear(in_features=320, out_features=320, bias=True)
                  (1): Dropout(p=0.0, inplace=False)
                )
              )
              (norm3): LayerNorm((320,), eps=1e-05, elementwise_affine=True)
              (ff): FeedForward(
                (net): ModuleList(
                  (0): GEGLU(
                    (proj): Linear(in_features=320, out_features=2560, bias=True)
                  )
                  (1): Dropout(p=0.0, inplace=False)
                  (2): Linear(in_features=1280, out_features=320, bias=True)
                )
              )
            )
          )
          (proj_out): Linear(in_features=320, out_features=320, bias=True)
        )
        (2): TransformerTemporalModel(
          (norm): GroupNorm(32, 320, eps=1e-06, affine=True)
          (proj_in): Linear(in_features=320, out_features=320, bias=True)
          (transformer_blocks): ModuleList(
            (0): BasicTransformerBlock(
              (norm1): LayerNorm((320,), eps=1e-05, elementwise_affine=True)
              (attn1): Attention(
                (to_q): Linear(in_features=320, out_features=320, bias=False)
                (to_k): Linear(in_features=320, out_features=320, bias=False)
                (to_v): Linear(in_features=320, out_features=320, bias=False)
                (to_out): ModuleList(
                  (0): Linear(in_features=320, out_features=320, bias=True)
                  (1): Dropout(p=0.0, inplace=False)
                )
              )
              (norm2): LayerNorm((320,), eps=1e-05, elementwise_affine=True)
              (attn2): Attention(
                (to_q): Linear(in_features=320, out_features=320, bias=False)
                (to_k): Linear(in_features=320, out_features=320, bias=False)
                (to_v): Linear(in_features=320, out_features=320, bias=False)
                (to_out): ModuleList(
                  (0): Linear(in_features=320, out_features=320, bias=True)
                  (1): Dropout(p=0.0, inplace=False)
                )
              )
              (norm3): LayerNorm((320,), eps=1e-05, elementwise_affine=True)
              (ff): FeedForward(
                (net): ModuleList(
                  (0): GEGLU(
                    (proj): Linear(in_features=320, out_features=2560, bias=True)
                  )
                  (1): Dropout(p=0.0, inplace=False)
                  (2): Linear(in_features=1280, out_features=320, bias=True)
                )
              )
            )
          )
          (proj_out): Linear(in_features=320, out_features=320, bias=True)
        )
      )
      (adapter_down): ModuleList(
        (0): down_channel(
          (conv): Conv2d(320, 40, kernel_size=(1, 1), stride=(1, 1))
          (norm): GroupNorm(4, 40, eps=1e-06, affine=True)
        )
        (1): down_channel(
          (conv): Conv2d(320, 40, kernel_size=(1, 1), stride=(1, 1))
          (norm): GroupNorm(4, 40, eps=1e-06, affine=True)
        )
        (2): down_channel(
          (conv): Conv2d(320, 40, kernel_size=(1, 1), stride=(1, 1))
          (norm): GroupNorm(4, 40, eps=1e-06, affine=True)
        )
      )
      (spatial_adapters_resnets): ModuleList(
        (0): ResnetBlock2D(
          (norm1): GroupNorm(4, 120, eps=1e-05, affine=True)
          (conv1): Conv2d(120, 40, kernel_size=(3, 3), stride=(1, 1), padding=(1, 1))
          (time_emb_proj): Linear(in_features=1280, out_features=40, bias=True)
          (norm2): GroupNorm(4, 40, eps=1e-05, affine=True)
          (dropout): Dropout(p=0.0, inplace=False)
          (conv2): Conv2d(40, 40, kernel_size=(3, 3), stride=(1, 1), padding=(1, 1))
          (nonlinearity): SiLU()
          (conv_shortcut): Conv2d(120, 40, kernel_size=(1, 1), stride=(1, 1))
        )
        (1): ResnetBlock2D(
          (norm1): GroupNorm(4, 80, eps=1e-05, affine=True)
          (conv1): Conv2d(80, 40, kernel_size=(3, 3), stride=(1, 1), padding=(1, 1))
          (time_emb_proj): Linear(in_features=1280, out_features=40, bias=True)
          (norm2): GroupNorm(4, 40, eps=1e-05, affine=True)
          (dropout): Dropout(p=0.0, inplace=False)
          (conv2): Conv2d(40, 40, kernel_size=(3, 3), stride=(1, 1), padding=(1, 1))
          (nonlinearity): SiLU()
          (conv_shortcut): Conv2d(80, 40, kernel_size=(1, 1), stride=(1, 1))
        )
        (2): ResnetBlock2D(
          (norm1): GroupNorm(4, 80, eps=1e-05, affine=True)
          (conv1): Conv2d(80, 40, kernel_size=(3, 3), stride=(1, 1), padding=(1, 1))
          (time_emb_proj): Linear(in_features=1280, out_features=40, bias=True)
          (norm2): GroupNorm(4, 40, eps=1e-05, affine=True)
          (dropout): Dropout(p=0.0, inplace=False)
          (conv2): Conv2d(40, 40, kernel_size=(3, 3), stride=(1, 1), padding=(1, 1))
          (nonlinearity): SiLU()
          (conv_shortcut): Conv2d(80, 40, kernel_size=(1, 1), stride=(1, 1))
        )
      )
      (spatial_adapters_attentions): ModuleList(
        (0): Transformer2DModel(
          (norm): GroupNorm(4, 40, eps=1e-06, affine=True)
          (proj_in): Linear(in_features=40, out_features=40, bias=True)
          (transformer_blocks): ModuleList(
            (0): BasicTransformerBlock(
              (norm1): LayerNorm((40,), eps=1e-05, elementwise_affine=True)
              (attn1): Attention(
                (to_q): Linear(in_features=40, out_features=40, bias=False)
                (to_k): Linear(in_features=40, out_features=40, bias=False)
                (to_v): Linear(in_features=40, out_features=40, bias=False)
                (to_out): ModuleList(
                  (0): Linear(in_features=40, out_features=40, bias=True)
                  (1): Dropout(p=0.0, inplace=False)
                )
              )
              (norm2): LayerNorm((40,), eps=1e-05, elementwise_affine=True)
              (attn2): Attention(
                (to_q): Linear(in_features=40, out_features=40, bias=False)
                (to_k): Linear(in_features=1024, out_features=40, bias=False)
                (to_v): Linear(in_features=1024, out_features=40, bias=False)
                (to_out): ModuleList(
                  (0): Linear(in_features=40, out_features=40, bias=True)
                  (1): Dropout(p=0.0, inplace=False)
                )
              )
              (norm3): LayerNorm((40,), eps=1e-05, elementwise_affine=True)
              (ff): FeedForward(
                (net): ModuleList(
                  (0): GEGLU(
                    (proj): Linear(in_features=40, out_features=320, bias=True)
                  )
                  (1): Dropout(p=0.0, inplace=False)
                  (2): Linear(in_features=160, out_features=40, bias=True)
                )
              )
            )
          )
          (proj_out): Linear(in_features=40, out_features=40, bias=True)
        )
        (1): Transformer2DModel(
          (norm): GroupNorm(4, 40, eps=1e-06, affine=True)
          (proj_in): Linear(in_features=40, out_features=40, bias=True)
          (transformer_blocks): ModuleList(
            (0): BasicTransformerBlock(
              (norm1): LayerNorm((40,), eps=1e-05, elementwise_affine=True)
              (attn1): Attention(
                (to_q): Linear(in_features=40, out_features=40, bias=False)
                (to_k): Linear(in_features=40, out_features=40, bias=False)
                (to_v): Linear(in_features=40, out_features=40, bias=False)
                (to_out): ModuleList(
                  (0): Linear(in_features=40, out_features=40, bias=True)
                  (1): Dropout(p=0.0, inplace=False)
                )
              )
              (norm2): LayerNorm((40,), eps=1e-05, elementwise_affine=True)
              (attn2): Attention(
                (to_q): Linear(in_features=40, out_features=40, bias=False)
                (to_k): Linear(in_features=1024, out_features=40, bias=False)
                (to_v): Linear(in_features=1024, out_features=40, bias=False)
                (to_out): ModuleList(
                  (0): Linear(in_features=40, out_features=40, bias=True)
                  (1): Dropout(p=0.0, inplace=False)
                )
              )
              (norm3): LayerNorm((40,), eps=1e-05, elementwise_affine=True)
              (ff): FeedForward(
                (net): ModuleList(
                  (0): GEGLU(
                    (proj): Linear(in_features=40, out_features=320, bias=True)
                  )
                  (1): Dropout(p=0.0, inplace=False)
                  (2): Linear(in_features=160, out_features=40, bias=True)
                )
              )
            )
          )
          (proj_out): Linear(in_features=40, out_features=40, bias=True)
        )
        (2): Transformer2DModel(
          (norm): GroupNorm(4, 40, eps=1e-06, affine=True)
          (proj_in): Linear(in_features=40, out_features=40, bias=True)
          (transformer_blocks): ModuleList(
            (0): BasicTransformerBlock(
              (norm1): LayerNorm((40,), eps=1e-05, elementwise_affine=True)
              (attn1): Attention(
                (to_q): Linear(in_features=40, out_features=40, bias=False)
                (to_k): Linear(in_features=40, out_features=40, bias=False)
                (to_v): Linear(in_features=40, out_features=40, bias=False)
                (to_out): ModuleList(
                  (0): Linear(in_features=40, out_features=40, bias=True)
                  (1): Dropout(p=0.0, inplace=False)
                )
              )
              (norm2): LayerNorm((40,), eps=1e-05, elementwise_affine=True)
              (attn2): Attention(
                (to_q): Linear(in_features=40, out_features=40, bias=False)
                (to_k): Linear(in_features=1024, out_features=40, bias=False)
                (to_v): Linear(in_features=1024, out_features=40, bias=False)
                (to_out): ModuleList(
                  (0): Linear(in_features=40, out_features=40, bias=True)
                  (1): Dropout(p=0.0, inplace=False)
                )
              )
              (norm3): LayerNorm((40,), eps=1e-05, elementwise_affine=True)
              (ff): FeedForward(
                (net): ModuleList(
                  (0): GEGLU(
                    (proj): Linear(in_features=40, out_features=320, bias=True)
                  )
                  (1): Dropout(p=0.0, inplace=False)
                  (2): Linear(in_features=160, out_features=40, bias=True)
                )
              )
            )
          )
          (proj_out): Linear(in_features=40, out_features=40, bias=True)
        )
      )
    )
  )
  (down_input): down_channel(
    (conv): Conv2d(320, 40, kernel_size=(1, 1), stride=(1, 1))
    (norm): GroupNorm(4, 40, eps=1e-06, affine=True)
  )
  (up_input): up_channel(
    (conv): Conv2d(40, 320, kernel_size=(1, 1), stride=(1, 1))
    (norm): GroupNorm(32, 320, eps=1e-06, affine=True)
  )
  (mid_block): UNetMidBlock3DCrossAttn(
    (resnets): ModuleList(
      (0): ResnetBlock2D(
        (norm1): GroupNorm(32, 1280, eps=1e-05, affine=True)
        (conv1): Conv2d(1280, 1280, kernel_size=(3, 3), stride=(1, 1), padding=(1, 1))
        (time_emb_proj): Linear(in_features=1280, out_features=1280, bias=True)
        (norm2): GroupNorm(32, 1280, eps=1e-05, affine=True)
        (dropout): Dropout(p=0.0, inplace=False)
        (conv2): Conv2d(1280, 1280, kernel_size=(3, 3), stride=(1, 1), padding=(1, 1))
        (nonlinearity): SiLU()
      )
      (1): ResnetBlock2D(
        (norm1): GroupNorm(32, 1280, eps=1e-05, affine=True)
        (conv1): Conv2d(1280, 1280, kernel_size=(3, 3), stride=(1, 1), padding=(1, 1))
        (time_emb_proj): Linear(in_features=1280, out_features=1280, bias=True)
        (norm2): GroupNorm(32, 1280, eps=1e-05, affine=True)
        (dropout): Dropout(p=0.0, inplace=False)
        (conv2): Conv2d(1280, 1280, kernel_size=(3, 3), stride=(1, 1), padding=(1, 1))
        (nonlinearity): SiLU()
      )
    )
    (temp_convs): ModuleList(
      (0): TemporalConvLayer(
        (proj_conv): Sequential(
          (0): GroupNorm(32, 1280, eps=1e-05, affine=True)
          (1): SiLU()
          (2): Conv3d(1280, 1280, kernel_size=(3, 1, 1), stride=(1, 1, 1), padding=(1, 0, 0))
        )
        (conv1): Sequential(
          (0): GroupNorm(32, 1280, eps=1e-05, affine=True)
          (1): SiLU()
          (2): Conv3d(1280, 1280, kernel_size=(3, 1, 1), stride=(1, 1, 1), padding=(1, 0, 0))
        )
        (conv2): Sequential(
          (0): GroupNorm(32, 1280, eps=1e-05, affine=True)
          (1): SiLU()
          (2): Dropout(p=0.1, inplace=False)
          (3): Conv3d(1280, 1280, kernel_size=(3, 1, 1), stride=(1, 1, 1), padding=(1, 0, 0))
        )
        (conv3): Sequential(
          (0): GroupNorm(32, 1280, eps=1e-05, affine=True)
          (1): SiLU()
          (2): Dropout(p=0.1, inplace=False)
          (3): Conv3d(1280, 1280, kernel_size=(3, 1, 1), stride=(1, 1, 1), padding=(1, 0, 0))
        )
        (conv4): Sequential(
          (0): GroupNorm(32, 1280, eps=1e-05, affine=True)
          (1): SiLU()
          (2): Dropout(p=0.1, inplace=False)
          (3): Conv3d(1280, 1280, kernel_size=(3, 1, 1), stride=(1, 1, 1), padding=(1, 0, 0))
        )
      )
      (1): TemporalConvLayer(
        (proj_conv): Sequential(
          (0): GroupNorm(32, 1280, eps=1e-05, affine=True)
          (1): SiLU()
          (2): Conv3d(1280, 1280, kernel_size=(3, 1, 1), stride=(1, 1, 1), padding=(1, 0, 0))
        )
        (conv1): Sequential(
          (0): GroupNorm(32, 1280, eps=1e-05, affine=True)
          (1): SiLU()
          (2): Conv3d(1280, 1280, kernel_size=(3, 1, 1), stride=(1, 1, 1), padding=(1, 0, 0))
        )
        (conv2): Sequential(
          (0): GroupNorm(32, 1280, eps=1e-05, affine=True)
          (1): SiLU()
          (2): Dropout(p=0.1, inplace=False)
          (3): Conv3d(1280, 1280, kernel_size=(3, 1, 1), stride=(1, 1, 1), padding=(1, 0, 0))
        )
        (conv3): Sequential(
          (0): GroupNorm(32, 1280, eps=1e-05, affine=True)
          (1): SiLU()
          (2): Dropout(p=0.1, inplace=False)
          (3): Conv3d(1280, 1280, kernel_size=(3, 1, 1), stride=(1, 1, 1), padding=(1, 0, 0))
        )
        (conv4): Sequential(
          (0): GroupNorm(32, 1280, eps=1e-05, affine=True)
          (1): SiLU()
          (2): Dropout(p=0.1, inplace=False)
          (3): Conv3d(1280, 1280, kernel_size=(3, 1, 1), stride=(1, 1, 1), padding=(1, 0, 0))
        )
      )
    )
    (attentions): ModuleList(
      (0): Transformer2DModel(
        (norm): GroupNorm(32, 1280, eps=1e-06, affine=True)
        (proj_in): Linear(in_features=1280, out_features=1280, bias=True)
        (transformer_blocks): ModuleList(
          (0): BasicTransformerBlock(
            (norm1): LayerNorm((1280,), eps=1e-05, elementwise_affine=True)
            (attn1): Attention(
              (to_q): Linear(in_features=1280, out_features=1280, bias=False)
              (to_k): Linear(in_features=1280, out_features=1280, bias=False)
              (to_v): Linear(in_features=1280, out_features=1280, bias=False)
              (to_out): ModuleList(
                (0): Linear(in_features=1280, out_features=1280, bias=True)
                (1): Dropout(p=0.0, inplace=False)
              )
            )
            (norm2): LayerNorm((1280,), eps=1e-05, elementwise_affine=True)
            (attn2): Attention(
              (to_q): Linear(in_features=1280, out_features=1280, bias=False)
              (to_k): Linear(in_features=1024, out_features=1280, bias=False)
              (to_v): Linear(in_features=1024, out_features=1280, bias=False)
              (to_out): ModuleList(
                (0): Linear(in_features=1280, out_features=1280, bias=True)
                (1): Dropout(p=0.0, inplace=False)
              )
            )
            (norm3): LayerNorm((1280,), eps=1e-05, elementwise_affine=True)
            (ff): FeedForward(
              (net): ModuleList(
                (0): GEGLU(
                  (proj): Linear(in_features=1280, out_features=10240, bias=True)
                )
                (1): Dropout(p=0.0, inplace=False)
                (2): Linear(in_features=5120, out_features=1280, bias=True)
              )
            )
          )
        )
        (proj_out): Linear(in_features=1280, out_features=1280, bias=True)
      )
    )
    (temp_attentions): ModuleList(
      (0): TransformerTemporalModel(
        (norm): GroupNorm(32, 1280, eps=1e-06, affine=True)
        (proj_in): Linear(in_features=1280, out_features=1280, bias=True)
        (transformer_blocks): ModuleList(
          (0): BasicTransformerBlock(
            (norm1): LayerNorm((1280,), eps=1e-05, elementwise_affine=True)
            (attn1): Attention(
              (to_q): Linear(in_features=1280, out_features=1280, bias=False)
              (to_k): Linear(in_features=1280, out_features=1280, bias=False)
              (to_v): Linear(in_features=1280, out_features=1280, bias=False)
              (to_out): ModuleList(
                (0): Linear(in_features=1280, out_features=1280, bias=True)
                (1): Dropout(p=0.0, inplace=False)
              )
            )
            (norm2): LayerNorm((1280,), eps=1e-05, elementwise_affine=True)
            (attn2): Attention(
              (to_q): Linear(in_features=1280, out_features=1280, bias=False)
              (to_k): Linear(in_features=1280, out_features=1280, bias=False)
              (to_v): Linear(in_features=1280, out_features=1280, bias=False)
              (to_out): ModuleList(
                (0): Linear(in_features=1280, out_features=1280, bias=True)
                (1): Dropout(p=0.0, inplace=False)
              )
            )
            (norm3): LayerNorm((1280,), eps=1e-05, elementwise_affine=True)
            (ff): FeedForward(
              (net): ModuleList(
                (0): GEGLU(
                  (proj): Linear(in_features=1280, out_features=10240, bias=True)
                )
                (1): Dropout(p=0.0, inplace=False)
                (2): Linear(in_features=5120, out_features=1280, bias=True)
              )
            )
          )
        )
        (proj_out): Linear(in_features=1280, out_features=1280, bias=True)
      )
    )
    (adapter_down): ModuleList(
      (0): down_channel(
        (conv): Conv2d(1280, 160, kernel_size=(1, 1), stride=(1, 1))
        (norm): GroupNorm(4, 160, eps=1e-06, affine=True)
      )
      (1): down_channel(
        (conv): Conv2d(1280, 160, kernel_size=(1, 1), stride=(1, 1))
        (norm): GroupNorm(4, 160, eps=1e-06, affine=True)
      )
    )
    (spatial_adapters_resnets): ModuleList(
      (0): ResnetBlock2D(
        (norm1): GroupNorm(4, 160, eps=1e-05, affine=True)
        (conv1): Conv2d(160, 160, kernel_size=(3, 3), stride=(1, 1), padding=(1, 1))
        (time_emb_proj): Linear(in_features=1280, out_features=160, bias=True)
        (norm2): GroupNorm(4, 160, eps=1e-05, affine=True)
        (dropout): Dropout(p=0.0, inplace=False)
        (conv2): Conv2d(160, 160, kernel_size=(3, 3), stride=(1, 1), padding=(1, 1))
        (nonlinearity): SiLU()
      )
      (1): ResnetBlock2D(
        (norm1): GroupNorm(4, 160, eps=1e-05, affine=True)
        (conv1): Conv2d(160, 160, kernel_size=(3, 3), stride=(1, 1), padding=(1, 1))
        (time_emb_proj): Linear(in_features=1280, out_features=160, bias=True)
        (norm2): GroupNorm(4, 160, eps=1e-05, affine=True)
        (dropout): Dropout(p=0.0, inplace=False)
        (conv2): Conv2d(160, 160, kernel_size=(3, 3), stride=(1, 1), padding=(1, 1))
        (nonlinearity): SiLU()
      )
    )
    (spatial_adapters_attentions): ModuleList(
      (0): Transformer2DModel(
        (norm): GroupNorm(4, 160, eps=1e-06, affine=True)
        (proj_in): Linear(in_features=160, out_features=160, bias=True)
        (transformer_blocks): ModuleList(
          (0): BasicTransformerBlock(
            (norm1): LayerNorm((160,), eps=1e-05, elementwise_affine=True)
            (attn1): Attention(
              (to_q): Linear(in_features=160, out_features=160, bias=False)
              (to_k): Linear(in_features=160, out_features=160, bias=False)
              (to_v): Linear(in_features=160, out_features=160, bias=False)
              (to_out): ModuleList(
                (0): Linear(in_features=160, out_features=160, bias=True)
                (1): Dropout(p=0.0, inplace=False)
              )
            )
            (norm2): LayerNorm((160,), eps=1e-05, elementwise_affine=True)
            (attn2): Attention(
              (to_q): Linear(in_features=160, out_features=160, bias=False)
              (to_k): Linear(in_features=1024, out_features=160, bias=False)
              (to_v): Linear(in_features=1024, out_features=160, bias=False)
              (to_out): ModuleList(
                (0): Linear(in_features=160, out_features=160, bias=True)
                (1): Dropout(p=0.0, inplace=False)
              )
            )
            (norm3): LayerNorm((160,), eps=1e-05, elementwise_affine=True)
            (ff): FeedForward(
              (net): ModuleList(
                (0): GEGLU(
                  (proj): Linear(in_features=160, out_features=1280, bias=True)
                )
                (1): Dropout(p=0.0, inplace=False)
                (2): Linear(in_features=640, out_features=160, bias=True)
              )
            )
          )
        )
        (proj_out): Linear(in_features=160, out_features=160, bias=True)
      )
    )
  )
  (time_spatial_fuse): Conv2d(640, 320, kernel_size=(1, 1), stride=(1, 1))
  (conv_norm_out): GroupNorm(32, 320, eps=1e-05, affine=True)
  (conv_act): SiLU()
  (conv_out): Conv2d(320, 4, kernel_size=(3, 3), stride=(1, 1), padding=(1, 1))
)
12/03/2023 07:10:30 - INFO - __main__ - 

12/03/2023 07:10:30 - INFO - __main__ - model_num:1529647620
12/03/2023 07:10:30 - INFO - __main__ - 

12/03/2023 07:10:30 - INFO - __main__ - vae
12/03/2023 07:10:30 - INFO - __main__ - 

12/03/2023 07:10:30 - INFO - __main__ - model_num:83653863
12/03/2023 07:10:30 - INFO - __main__ - 

12/03/2023 07:10:30 - INFO - __main__ - text_encoder
…
